src/models/train_models/best_checkpoint.pth (torch, 999455 bytes, 8 tensors)

fc1.weight f4 [256, 784]
000000 e9 8e 0f 3d 32 e7 00 bc 8e 20 ce bc 95 bf fd bc
       0.0350484 -0.007867621 -0.025162008 -0.030975142
000010 d2 a9 0e bd e0 e7 61 3c c8 60 e3 bb 6a fe bf bc
       -0.034829922 0.013788193 -0.0069390275 -0.023436744
000020 c8 d8 f3 3c d0 58 73 bb 5c 10 9f 3c 60 89 ba 3c
       0.029766455 -0.0037131794 0.01941698 0.022770584
000030 bb 2e 41 3d f7 dd 69 3c 88 12 08 3d 34 2c 4d 3c
       0.047163706 0.014274112 0.033220798 0.012522746
000040 8f e0 00 3c f6 bc cd 3a a0 f8 1b 3c 22 ac bf 3c
       0.007866039 0.0015696574 0.009519726 0.023397509
000050 64 db fb 3c 60 f9 51 bb 4b 8a 7c 3c 3e ab f9 3c
       0.030744262 -0.0032039508 0.015413831 0.030477162
000060 65 c9 8b bc a8 c8 f1 3b 2a 60 04 bc 30 3a b2 bc
       -0.017063806 0.0073786564 -0.008079568 -0.021756262
000070 71 17 0c 3d 5c 26 a5 bc 8c 56 fa bc 82 d8 b6 3c
       0.034202043 -0.020159893 -0.030558847 0.022320036
000080 ee 0f 3f bc d3 1c 90 bc 83 99 f9 3b 1a 46 19 3c
       -0.011661513 -0.01759187 0.007617177 0.009355092
000090 dc 04 7e 3d b0 22 02 3d 72 77 e2 3c a2 73 06 3d
       0.062016353 0.03177136 0.027644847 0.03282512
0000a0 6b 14 0c bc ac cc 15 bc e4 67 11 3c b6 ed c2 3c
       -0.00854979 -0.009143036 0.008874867 0.02379499
0000b0 58 c7 c8 3d 6f e5 d1 3d 1b e7 ba 3d c9 6c ea 3d
       0.09803647 0.10248839 0.09126111 0.1144653
0000c0 0d 7e 34 3d 98 ae 2c 3d 92 5b 57 3d f4 67 e5 3c
       0.044065524 0.042158693 0.052577563 0.02800367
0000d0 9b 44 38 3d 7e 72 10 bd e8 a2 49 3c 7c ef 2a 3c
       0.044987302 -0.03526544 0.012306906 0.010433074
0000e0 70 5b bc 3b 80 ef b2 bc 38 4d ec bb 90 f3 09 3b
       0.005748205 -0.021842718 -0.0072113536 0.0021049716
0000f0 b9 e6 5d bc c8 ca 4e 3d 5f b9 7b 3d d5 63 7f 3d
       -0.013543778 0.050486356 0.06145608 0.062351067
000100 c4 56 23 3d fa 71 5d 3c ac 8e f9 3b 44 23 14 3c
       0.039877668 0.013515944 0.0076158848 0.009041611
000110 78 f0 9c 3b 10 22 69 3d 08 bb 4c 3d 23 4b 37 3d
       0.0047894083 0.05691725 0.049983054 0.04474939
000120 1e ca b2 3d 3f 18 1a 3d 1d d4 c1 3c 38 f3 90 bc
       0.08729957 0.03762078 0.023660714 -0.0176941
000130 62 23 00 3d 61 fe 63 3a 64 07 98 3b 50 61 b6 bc
       0.031283744 0.0008697268 0.004639553 -0.0222632
000140 0c 9f e1 3c e0 78 b2 3a 95 45 f4 bc c5 b2 ae bc
       0.02754166 0.0013616346 -0.029818336 -0.021325478
000150 30 3f 04 bd e8 9c ff 3b 40 8a 62 bc 16 52 b1 3c
       -0.032286823 0.007800687 -0.013826907 0.021645587
000160 3e a7 58 3a cc 6b b6 3b 47 95 3c 3d 62 1a 1e 3d
       0.0008264667 0.0055670496 0.0460408 0.03859938
000170 8f 79 0f 3d c4 fa 07 3d c9 f8 f4 3b 66 6d fd bc
       0.035028037 0.033198133 0.0074759466 -0.030935954
000180 fb ef 77 bb ce e1 6e 3a 65 bb 05 3c c1 e8 3e 3d
       -0.0037832248 0.0009112627 0.008162354 0.04660869
000190 85 c4 ab 3c d3 f4 34 3d 03 70 5a 3d 3d 43 2e 3d
       0.020967731 0.044178795 0.05332948 0.042544592
0001a0 86 fc 8b 3c 43 3b 91 bb 5f 02 1e bd 28 91 c1 bd
       0.017088186 -0.0044321134 -0.03857648 -0.094515145
0001b0 45 d1 bc bc 40 20 c1 bb 20 6b 36 bc c4 0c 0c 3c
       -0.023049006 -0.005893737 -0.011133939 0.008547965
0001c0 9e 28 ea 3c 08 a4 f3 3b 2f 64 7f bc b0 ec f9 3c
       0.02858382 0.0074353255 -0.0155878505 0.03050837
0001d0 6e b5 ec bc 01 64 26 3d fc 1b ef 3c 36 20 b3 3c
       -0.028895106 0.040622715 0.029188149 0.021865945
0001e0 5e ad 70 bc dc 16 96 3a 89 20 d5 bd b3 e3 bb bc
       -0.014689771 0.0011450904 -0.10406596 -0.022935724
0001f0 ea bd a5 3a 26 61 51 bd 2c 08 ae bc 3d 43 f9 3c
       0.00126451 -0.05111804 -0.021244131 0.03042757
000200 98 59 2b 3c 49 65 e6 3c e7 bb 8a 3c 40 ce 6d 3d
       0.0104583725 0.028124468 0.016935302 0.058058023
000210 77 c3 61 3d 78 aa 8b 3d f4 c2 57 bd 43 45 ab bd
       0.05511805 0.06819624 -0.052676156 -0.0836282
000220 97 29 8e bd 61 72 8b 3c dd 4d 83 3c 38 fd 21 3c
       -0.069415264 0.017022314 0.016028339 0.009887032
000230 a8 00 df 3b 40 47 19 ba 72 82 36 3d fd 66 73 3d
       0.006805498 -0.0005847104 0.044557996 0.05942439
000240 89 a6 b1 bc 02 0d c2 bc 62 5f f4 3c 72 f8 36 bd
       -0.021685855 -0.023687843 0.029830638 -0.04467053
000250 08 0d ea bc 4b 2d ed bc 9d 3d 56 bd 08 1c 60 bd
       -0.028570667 -0.028952261 -0.052304853 -0.054714233
000260 1f 66 b4 bc 7f a9 58 bd 56 55 76 bd fd e2 ab 3c
       -0.022021351 -0.05289602 -0.060139976 0.02098226
000270 b0 09 2f 3d 27 b8 a8 bc e7 69 08 bc 0b 9a 4f bc
       0.042733848 -0.020595623 -0.00832603 -0.012671004
000280 96 76 db 3c fa 96 ec bc e6 ff ac 3b ab 4a 39 bd
       0.026789945 -0.028880585 0.005279529 -0.045237225
000290 f7 a9 5f bd 77 68 86 bd 16 27 58 bd be 8d 8b bc
       -0.05460545 -0.06562894 -0.05277165 -0.017035361
0002a0 82 15 f6 3c 9c 76 15 3c 7c d1 35 3c c5 58 b4 bc
       0.030039553 0.009122517 0.011097308 -0.022014985
0002b0 f7 b3 bf bc 21 a1 3b bd f3 1d 79 bc a3 63 03 bc
       -0.023401244 -0.04580796 -0.015204894 -0.008019361
0002c0 53 7c 4d 3c 95 28 27 bd e9 e8 87 bd 77 d9 f6 b9
       0.012541848 -0.040810186 -0.06636221 -0.000470828
0002d0 0e 18 cc bc 18 6c 5d bd b9 36 6e bd 1e 80 f2 bb
       -0.024913814 -0.054058164 -0.058157656 -0.0074005267
0002e0 52 7b d5 bc 74 d0 be bc 8f 14 81 bd d9 3a ab 3c
       -0.02605978 -0.023292758 -0.06302749 0.020902084
0002f0 07 83 1a 3c ae d0 8f bb 69 da 61 bd f7 32 cd bc
       0.009430653 -0.00438889 -0.055139933 -0.025048716
000300 44 fd 21 bd b1 d9 57 bc 27 00 f1 ba ff 3c 10 3c
       -0.039548174 -0.01317446 -0.0018386886 0.008803605
000310 58 82 ac 3c a2 e9 d2 3c bd 4a 3d bc c7 14 1f 3c
       0.021058246 0.02574617 -0.0115534635 0.009709544
000320 a0 8c af bc 11 ee cf bc 27 20 dc 3b 4b a6 0c bd
       -0.02142936 -0.025382074 0.0067177 -0.034338277
000330 71 3d 86 bd b7 46 8e ba 4a 16 7a bc e3 88 3e bd
       -0.06554688 -0.0010854815 -0.015264103 -0.046517264
000340 70 a2 fe bc a0 e0 27 bc 6b 22 52 bd ff ba 84 3c
       -0.031083316 -0.010246426 -0.051302355 0.016202448
000350 37 60 cd bc 3f 5c 2a 3b 3f e8 94 bd 89 68 b9 bc
       -0.025070293 0.0025994924 -0.0727086 -0.022632854
000360 ac 6a 3b bd 9c f9 ed bb 30 74 d2 bc 23 a1 0d bd
       -0.045756027 -0.007262422 -0.025690168 -0.0345775
000370 28 52 25 bd 21 ba 0c bd bf 88 89 bc 1d 3b 06 3c
       -0.040361553 -0.034357194 -0.016788838 0.008192805
000380 dc 74 30 bc 9d 24 e3 3b 8f 4c a9 bc 19 28 5b bd
       -0.010770049 0.006931855 -0.020666389 -0.053505037
000390 02 cc 46 bd ed a9 74 bd a4 04 6e bd ee a7 bd bd
       -0.0485344 -0.059732366 -0.058109894 -0.09260546
0003a0 95 60 5e bd 01 63 03 bd a0 d7 16 bc 03 15 7c bd
       -0.054291327 -0.03207684 -0.009206682 -0.061543476
0003b0 9d 51 be bc 2a b1 23 ba 8d 14 1b bd 93 17 1f 3d
       -0.023232276 -0.0006244356 -0.037861396 0.03884084
0003c0 c2 98 1d 3d e6 ff da bc f6 97 38 bd 8b 4b b9 bd
       0.03847576 -0.02673335 -0.045066796 -0.09047612
0003d0 ab d6 94 bd c8 17 3d bd fe 17 68 bd fc 37 8d bd
       -0.07267507 -0.046165258 -0.056663506 -0.06895444
0003e0 17 d0 b0 3b 9e 27 11 bd 75 c3 a9 bc d9 22 d0 3a
       0.0053959 -0.035438173 -0.020723084 0.0015879526
0003f0 04 49 5e 3c c7 ba cb 3c 7c 9d df bb d1 73 94 bd
       0.013567213 0.024869336 -0.0068241935 -0.07248653

fc1.bias f4 [256]
000000 b2 ed fe 3b 37 98 84 3c 6b 61 fc bc 24 ff 03 bd
       0.0077798003 0.016185863 -0.030808171 -0.032225743
000010 f1 68 55 3c 47 82 8c 3d 95 b6 84 bc 65 11 68 bb
       0.013025508 0.06860786 -0.016200343 -0.0035410759
000020 93 78 b4 bd 31 e1 d8 bc 78 aa 9e bb 4d b6 06 3b
       -0.0881206 -0.026474567 -0.004842099 0.0020555437
000030 0d f6 55 3c 89 8b 7b 3c e7 7b e5 bc a5 3f 2d 3c
       0.013059151 0.015353092 -0.028013183 0.010574256
000040 3d 7e 3e bc 87 7f 44 bd 4c 29 5f bc 29 40 a7 3d
       -0.011626777 -0.047973182 -0.013620686 0.081665345
000050 ea 03 d1 3c d4 0c 45 bd 51 e9 ee bb 8d 4a ce 3b
       0.025514562 -0.048107937 -0.007290997 0.0062955082
000060 5c 54 9b 3d 13 4f d9 3c 3c de 0e bd 6b c4 c1 bc
       0.0758445 0.026526963 -0.034879908 -0.02365323
000070 4f e9 46 bc 21 14 c9 3c 7c 18 45 3d 35 fe 9b bc
       -0.012140586 0.024545731 0.048119053 -0.019042114
000080 37 d1 a8 3c ab a7 e8 3c 3b e0 f2 bb e5 75 93 3b
       0.020607574 0.028400263 -0.0074119843 0.004500138
000090 50 8d 66 3c f3 c0 1c bd f7 3a bb 3c 51 0b f3 3b
       0.014071777 -0.03826995 0.022855265 0.0074171205
0000a0 31 16 b4 3c 85 37 40 bc a0 7b 83 3c 41 ef 3d 3d
       0.021983238 -0.011731987 0.01605016 0.04637075
0000b0 e2 c8 b8 3c d1 79 2c bd 7a 27 7d bc bb 6e df 3c
       0.022556726 -0.04210836 -0.0154513065 0.02727448
0000c0 04 56 e4 bc 58 a3 02 3d bd 49 9d bd 5f 59 59 3c
       -0.027873047 0.031894058 -0.0768008 0.013265937
0000d0 a5 76 c2 3c d8 82 f0 3c 61 d3 ea 3c 2e b5 01 3c
       0.023738215 0.029359266 0.028665246 0.007916732
0000e0 ab b2 9f bc f2 b0 32 3c 5f e0 00 bc 2b e9 70 3c
       -0.019494375 0.010906445 -0.007865994 0.014704029
0000f0 50 94 36 3c ef 64 80 bb d4 35 dc 3c cd 1f aa bc
       0.011143759 -0.003918282 0.026881136 -0.020767117
000100 2e c1 94 bb cc a1 27 3c ee 48 3d 3d 75 c4 0b 3d
       -0.0045396304 0.0102314465 0.04621213 0.034122903
000110 f4 50 6e 3b 49 bd 12 bd 0b eb a3 bc 7c 4c f7 3c
       0.003636417 -0.035825048 -0.020009538 0.030187838
000120 19 f9 31 3c 91 25 2e 3d 38 a9 9a bb 46 2c 3d 3c
       0.010862612 0.042516295 -0.0047198795 0.0115462
000130 2a 13 79 bc 0d 09 ab 3c 99 f0 10 3c 2c 35 20 3c
       -0.015202323 0.02087834 0.008846425 0.009778302
000140 a3 33 96 bc a0 c9 49 3c 4e 9c 92 bb a1 64 01 bc
       -0.01833517 0.012316138 -0.0044741994 -0.007897527
000150 20 2b 0f bd df 14 ab 3c 22 91 dc bb a6 85 23 3d
       -0.034953237 0.020883976 -0.0067311684 0.03992238
000160 b3 d9 3e 3d 7a 1b 5d bd c9 87 6d 3c f0 87 1d bb
       0.046594333 -0.05398128 0.014497706 -0.0024037324
000170 3b c8 0a bc db 72 2f 3d c6 34 45 bd fd b9 1d bd
       -0.00847059 0.042834144 -0.04814603 -0.03850745
000180 fd 8d 9e bc b3 7d 87 bd 1a a5 37 3d 6f b4 7b bc
       -0.019354815 -0.06615772 0.044835187 -0.015362843
000190 fc 89 44 bd 82 74 6d 3d 23 3a 31 bc 16 45 93 bd
       -0.047983155 0.05797244 -0.0108170835 -0.071909115
0001a0 4a f4 50 bc 69 c2 cb 3c 67 86 58 bc f1 ab 53 3d
       -0.012753556 0.024872975 -0.013215638 0.051677648
0001b0 8f 99 9d 3c 35 c2 53 bd 4f 30 e2 3c 8d 97 6b 3d
       0.019238262 -0.051698882 0.027610926 0.057517577
0001c0 45 e1 47 3c 8f 2b bd bd 11 5c 0e 3d 3f 2b d5 3c
       0.012199705 -0.09236824 0.03475577 0.026021598
0001d0 c4 ad 26 bd 81 33 c8 3c 83 e9 71 bc e7 7a 30 3c
       -0.04069306 0.024438621 -0.014765146 0.01077149
0001e0 e5 6c 2a 3d fb 29 27 bd 0c 23 f4 bc 3e 60 e7 ba
       0.041607756 -0.04081152 -0.029801868 -0.0017652584
0001f0 65 81 26 3d c6 50 cc bc 4c e2 4b 3d ef d6 47 3d
       0.040650744 -0.02494086 0.04977636 0.04878896
000200 1e f1 03 3d 1f 2e 02 bd ec 1d c4 3b e0 e9 cc bb
       0.03221237 -0.031782266 0.0059850123 -0.006253466
000210 4b 46 ab 3c 6b 7b 33 3d 83 cb 6f 3d ef a5 95 3d
       0.020907542 0.043818872 0.058543693 0.0730704
000220 60 8f 10 3d 60 6a 41 3d 8f 54 aa 3c 94 6a ad 3c
       0.035292983 0.047220588 0.020792274 0.021168984
000230 6d 4d eb 3b 5b 70 4e bd 1a 91 c4 3c b2 05 58 bd
       0.0071808607 -0.05040012 0.023994971 -0.052739806
000240 e2 7a 19 3c 2e c6 29 3c a8 4d 16 3a 35 ec dc 3c
       0.009367676 0.010362191 0.00057336176 0.026968101
000250 8c 57 dc ba 7b 1f d0 3c fd ec e0 bc f2 f6 72 3d
       -0.0016810759 0.025405636 -0.027456755 0.059317537
000260 9e 0d 3a bc 7c 48 2b 3d 43 eb 0f bc 32 fb 87 bc
       -0.011355786 0.041817173 -0.008784118 -0.016599271
000270 d2 4a 5d bc c8 14 e3 3b 08 3a 53 3d 2f 84 1c bd
       -0.013506608 0.0069299676 0.051569015 -0.038211998
000280 4d 68 45 bd bc c9 34 3c 43 6f 93 3d 6f 4e b9 3c
       -0.048195172 0.011034425 0.07198956 0.022620408
000290 b0 10 0f 3d 6a 73 ba b9 0a 6f 3c 3d cd c7 14 3d
       0.034928024 -0.00035562675 0.046004333 0.036323357
0002a0 64 a9 45 3c fb 0c 8f 3c 9d ca 24 3d e4 2a 6e 3d
       0.012064312 0.017462244 0.04023229 0.058146372
0002b0 33 fc d8 bc e8 f6 25 3c d4 83 29 3d e1 28 10 bd
       -0.026487445 0.010129668 0.041385487 -0.035195235
0002c0 8d 94 93 bc 50 1e 00 bd be 99 a3 bb cd 21 99 3c
       -0.01801517 -0.03127891 -0.0049926927 0.018692875
0002d0 53 3d b0 bd 90 d1 c8 3b 8c e5 f4 3c 64 c0 87 3c
       -0.08605447 0.0061284974 0.029894613 0.016571231
0002e0 ae be 89 3c cb 8a 54 bc 63 40 a9 3c 02 44 33 bc
       0.016814556 -0.012972544 0.020660585 -0.010941507
0002f0 ef c2 08 3d d0 85 59 3d 37 97 a6 bb 37 d7 36 3d
       0.03338903 0.05310613 -0.005083944 0.04463884
000300 45 dd 92 3d d6 2d cb 38 cc 96 05 3c 2c f4 91 3c
       0.0717111 9.688332e-05 0.008153629 0.017816626
000310 59 21 c4 3d 04 bf 91 3c 7b fa 86 bb 48 f7 51 bc
       0.09576673 0.017791279 -0.004119215 -0.012815304
000320 80 0c 51 3d 53 53 9a 3d 3a 6a 2b 3d fa 3a ae 3c
       0.05103731 0.07535424 0.041849352 0.021268357
000330 1b 6a b9 bb 36 c7 1b 3d 49 d7 2d 3c 68 f2 0b 3d
       -0.0056584007 0.03803178 0.01061041 0.034166723
000340 e5 09 a7 3c c2 50 28 3d 1d 5c cb 3c 32 5e 1a bd
       0.02039046 0.04109264 0.024824196 -0.037687488
000350 06 26 8b 3c 7d 1e bd bc 8e c8 f7 3b 5b 0f 0d 3d
       0.016985904 -0.023085827 0.00756175 0.034438472
000360 95 99 3f bc 9e 36 fa bc 75 f1 bd 3d 27 ab 24 3d
       -0.011694332 -0.030543622 0.0927457 0.040202286
000370 2b ab d2 3c 6b 1e 87 bd 42 d0 bd bd 22 c2 c2 3c
       0.025716385 -0.06597599 -0.09268238 0.02377421
000380 4a 50 1e 3d 08 b5 9a 3d c2 ac 3c 3d 7f 88 a8 3b
       0.03865079 0.0755406 0.046063192 0.0051432247
000390 0e c8 8f bc 8e fb 43 3c 3b 4f 13 bd 31 76 06 3d
       -0.017551448 0.011961831 -0.035964232 0.03282756
0003a0 f2 90 ea 3c e2 25 ee bc 7c 0d 7d 3d 37 3f 35 3c
       0.028633568 -0.029070798 0.061780438 0.011062435
0003b0 da b5 e6 3c 88 92 69 3c 40 c4 cf 3b 99 ec 80 3c
       0.028162885 0.014256127 0.0063405335 0.015737819
0003c0 b2 db 11 3d 37 ea 02 3d f6 39 3c 3d 07 d5 c9 bc
       0.03560991 0.031961646 0.045953713 -0.024637712
0003d0 17 0d 16 bc d3 aa 45 bd 59 35 13 bc f6 f5 7c 3d
       -0.009158394 -0.048258614 -0.008984887 0.061758004
0003e0 5e 03 bf 3a 1c 24 a0 3d a4 33 77 3b 19 5f d3 3c
       0.0014573147 0.07819387 0.003771999 0.025802182
0003f0 40 19 3b 3d 9c ac 48 bd 78 df c0 3c 62 7e f9 3c
       0.045678377 -0.048992738 0.023544058 0.030455772

fc2.weight f4 [132, 256]
000000 39 6f cc bd 9f a4 c9 bc fe 64 d6 bc eb b5 3f bc
       -0.099821515 -0.02461463 -0.026171204 -0.0117010875
000010 3d 61 64 bd 5d 87 2e 3d ad 21 86 3d c1 d1 a9 bc
       -0.055756796 0.04260956 0.06549392 -0.020729901
000020 d5 7b e9 3d f5 d4 c0 bb 4e 5f 25 bd 64 3f 39 bd
       0.11400572 -0.0058847615 -0.040374093 -0.04522647
000030 81 b9 0a bd 3c 00 8f 3c 9e 39 da bc d3 ee c4 bd
       -0.033868317 0.017456166 -0.026638802 -0.096158646
000040 cd a0 50 3d 78 01 81 bd 07 9d 72 3d e3 f9 04 bc
       0.0509346 -0.06299108 0.059231784 -0.008116218
000050 be 8f 88 bc 09 98 58 3d ab 32 d3 3c 49 be 0b 3d
       -0.016670104 0.052879367 0.025780996 0.034117017
000060 5a a8 aa bd 20 f5 7c 3d 2d db 29 3d 7c 43 7a bc
       -0.08332892 0.061757207 0.041468788 -0.015274879
000070 c1 81 59 bc 0d 44 8d 3c c4 9c f4 38 16 d7 a9 3d
       -0.013275565 0.017244363 0.000116640265 0.082929775
000080 b6 f1 69 3c cf c3 f4 bc e4 43 82 bd 7e 7b 78 3c
       0.01427882 -0.029878525 -0.06360605 0.015166162
000090 86 07 7f bd bb 4c 9c bd e1 a7 45 3d 6f 3f dc 3c
       -0.062263034 -0.07631823 0.048255805 0.026885716
0000a0 28 52 ef 3d ac 57 3e bd 52 79 61 bb c7 64 3a bc
       0.11685592 -0.04647033 -0.0034404588 -0.011376566
0000b0 25 ec 34 bb 56 3d 5c 3d 95 c2 d4 3c d4 27 71 3d
       -0.0027606573 0.053769432 0.02597169 0.058875874
0000c0 af 0a e5 3b 21 b2 c9 3d f5 f8 09 3d ae 0f 56 3d
       0.006989799 0.098484285 0.03368469 0.052261047
0000d0 2a 38 f7 3c 9f 58 97 bd 6c 2f 1d bd f2 c7 f2 bb
       0.030178148 -0.0738995 -0.038375303 -0.0074090892
0000e0 02 a7 4b bd 5a 91 97 bc 1f 6d 50 3c 5f 4a 20 3c
       -0.049719818 -0.018501926 0.012721329 0.009783356
0000f0 8a fe 65 bd 0c a0 06 bc 99 6b 4c bd 2d 0c 25 3d
       -0.05615095 -0.008216869 -0.0499073 0.040294815
000100 16 23 94 3d 72 e2 0f 3d e3 d0 87 bc 3d ab f3 bc
       0.072332546 0.035128064 -0.016579097 -0.029744739
000110 d9 2f 7e bd 2e 72 d0 bc 63 02 8d 3d 41 48 0e 3d
       -0.06205735 -0.02544507 0.06885221 0.034736875
000120 16 5a 49 bd f0 a5 3b 3d 3a 1f ac bd 83 2a 83 3d
       -0.04915818 0.045812547 -0.084043935 0.06404593
000130 16 f8 ba bc 28 2e 05 bd 3e 60 8c 3c e3 97 08 bc
       -0.022823375 -0.03251472 0.017135736 -0.008336994
000140 f1 6e 8b 3d 9a 83 48 3d b0 d0 40 bd 39 cd 6d 3c
       0.0680827 0.04895363 -0.04707402 0.014514261
000150 bf 4d cc bc 6a ab 02 3c 2b 31 32 3c 4d 78 7c bc
       -0.024939416 0.007975439 0.01087598 -0.015409541
000160 67 68 5e bd 4d e2 09 3e 0b da 86 3d c0 c7 6e bd
       -0.054298785 0.13465233 0.06584557 -0.058295965
000170 ef f8 83 3d bd 58 89 3d 3c ad 45 bd c7 91 9d 3d
       0.06443965 0.067063786 -0.048260912 0.076938204
000180 c2 24 1a 3d d3 51 2e bd be 50 3c 3c 7f 67 e8 3c
       0.03763271 -0.042558502 0.01149386 0.028369663
000190 b5 c4 cd bd 32 f4 89 bc 20 f9 3c bd b1 5b 6c 3b
       -0.100472845 -0.016840074 -0.04613602 0.0036065395
0001a0 01 32 55 bc 80 a8 04 3d 00 3b a4 bd a4 aa e4 3c
       -0.01301241 0.032387257 -0.08019066 0.027913399
0001b0 1b 32 20 bc d0 a4 ad 38 8a 01 ac 3d 98 0b 24 3d
       -0.009777571 8.2799816e-05 0.08398731 0.04005012
0001c0 1c af 1a 3d 35 fc ab 3d 3e 05 50 bc e7 19 df 3c
       0.037764654 0.08397714 -0.012696562 0.02723403
0001d0 bf dc 89 3c 48 81 00 3c 7c 61 48 3d 0b a9 62 bd
       0.016828893 0.007843323 0.048921093 -0.055336993
0001e0 e7 6b 9b bd 96 34 00 3c d6 33 ee 3c ac 38 b0 bd
       -0.0758894 0.007825037 0.029077452 -0.08604559
0001f0 d9 90 7f bd bd 03 34 bd 37 40 93 3c 07 3e 9a bd
       -0.062393997 -0.043948878 0.017974956 -0.07531362
000200 a5 91 6f bd ba 24 ed bc ef e0 92 3d 98 cb 8a 3d
       -0.058488507 -0.028948177 0.07171809 0.06777114
000210 b7 52 24 3d 6c 6d a0 3d 66 68 a4 bc 47 24 27 3d
       0.040117946 0.078333706 -0.020069312 0.04080608
000220 10 4c 83 3c 26 46 37 bc 61 93 f7 bc 6c c6 4a bd
       0.01602748 -0.011186158 -0.030221643 -0.049505636
000230 0e 1c 30 3d 32 c8 63 3d 0c f3 85 3d f4 7a 2b 3d
       0.042995505 0.055610843 0.06540498 0.041865304
000240 8e bf a7 3d 61 9b 54 bd bc d1 81 3d 37 5c a4 3d
       0.08190833 -0.051905993 0.06338832 0.08025401
000250 ee de 5d bd 01 3b c8 bb a2 8a 3c 3c 32 95 7c 3d
       -0.05416768 -0.0061105494 0.011507662 0.06166572
000260 1a d8 26 3d ad 09 b2 bb 0b 22 96 3b d9 55 e9 3c
       0.040733434 -0.0054332823 0.004581695 0.028483318
000270 5b 3c d1 3c 5b 51 d2 bc 2b 3b 31 3d c4 05 ce bc
       0.025541475 -0.025673559 0.043269318 -0.025149234
000280 11 15 92 3c 23 3c 32 bc ab 5b f5 bb 11 a9 39 bc
       0.01783231 -0.0108785955 -0.0074877343 -0.0113318125
000290 8e e6 91 bd fa 3a d5 3c a4 5c bf 3b 56 44 2c 3c
       -0.07124053 0.026029099 0.005839901 0.010514339
0002a0 11 59 20 3d e0 da f1 bd 3b 82 81 bc ee d2 10 bc
       0.03914744 -0.11809325 -0.015809169 -0.008839352
0002b0 10 b0 29 3c 61 fd dd 3d 28 2f 15 bd 8d a3 1d 3d
       0.010356918 0.10839344 -0.036421925 0.038486052
0002c0 f5 1e 03 bd 69 49 b9 3c c8 0f 7c 38 7e 13 84 bd
       -0.032011945 0.022618013 6.009618e-05 -0.0644903
0002d0 ee cb b5 3d 62 d8 c2 3c 88 ed 34 bc 12 0c 8e 3d
       0.08876787 0.02378482 -0.01104296 0.06935896
0002e0 50 d1 8c 3d 18 5b 89 bc 01 e5 61 bd 3b c2 1e 3d
       0.06875861 -0.01676707 -0.055150036 0.03875945
0002f0 49 27 1d 3d c8 1f ac bc 64 4f d5 bc f7 12 5b 3d
       0.038367543 -0.021011248 -0.026038833 0.053484883
000300 a4 55 b1 bd 07 6d 84 3d fd 96 03 3d de 9f a0 bd
       -0.08658913 0.06466108 0.032126416 -0.07842992
000310 fd de 07 be 46 52 35 bd 57 87 36 3c fa 7b 4e 3b
       -0.13268657 -0.044267915 0.011140666 0.0031507001
000320 92 31 52 3d a7 b5 a1 3d 44 5d ab 3d 5d 90 11 3c
       0.051316805 0.078959756 0.083673984 0.008884517
000330 74 14 f4 3c dd 36 92 bd b2 fb d8 bc 4f 06 fd bc
       0.029794909 -0.071393706 -0.026487205 -0.030886797
000340 59 cb 41 3c 80 3d 9b bb 31 5b 48 3d 0a 40 14 3d
       0.011828267 -0.004737556 0.048915092 0.036193885
000350 51 1e 3e 3d 36 b5 dc 3c 90 5f 96 3c 38 da 82 bb
       0.04641563 0.026941877 0.018356115 -0.003993299
000360 12 92 a0 3d 10 22 2f bd 15 f5 77 bd 88 35 8b bd
       0.07840361 -0.042757094 -0.060536463 -0.0679732
000370 31 13 b8 3c e6 14 5d bd 88 28 02 3c 2b 91 85 bd
       0.022470089 -0.05397501 0.007944234 -0.06521829
000380 a1 13 97 3b b8 ce e0 bd 0c 11 fd bd 53 9a 97 bd
       0.0046104942 -0.109769285 -0.12356767 -0.07402482
000390 a5 72 f9 bc 3c 3e 14 3d e6 bd f0 3c df ab bc bb
       -0.030450175 0.036192164 0.029387426 -0.0057577933
0003a0 5c da aa 3c 76 c6 03 bb 1e a4 cb bd 04 0c 61 3d
       0.020856075 -0.0020107306 -0.09943412 0.0549431
0003b0 6a b3 ef bc 5c cb a2 bc 02 f7 b6 3d 77 f4 0a 3d
       -0.029260356 -0.01987236 0.08933832 0.033924546
0003c0 28 3d 85 3d 02 16 c3 bc 35 ae 41 3c 93 67 02 bd
       0.06505805 -0.023814205 0.011821319 -0.031837057
0003d0 9e 02 18 bd cb 32 ae 3d 1d 12 fa 3a 42 31 72 3d
       -0.03711187 0.08505782 0.0019078885 0.059129007
0003e0 4f 07 d0 3d 24 33 d2 3d 50 01 19 3d 7d f4 90 3d
       0.10157644 0.102636606 0.037354767 0.070778824
0003f0 59 f2 96 3b 76 6d 88 bd f1 6c d5 bc a3 56 30 bc
       0.004606527 -0.06661503 -0.026052924 -0.010762843

fc2.bias f4 [132]
000000 7e fa 4a 3c 43 3a 8c bd 5d ad 1e 3d a6 f0 9c 3d
       0.012388824 -0.0684705 0.03873955 0.076630875
000010 1a b0 2f 3d 29 b1 9a 3d 81 93 92 3d 81 6f 95 bb
       0.042892553 0.07553322 0.071570404 -0.0045604114
000020 81 72 d4 bb 57 01 fb 3c bb 0c 0f 3c 98 65 c7 3d
       -0.0064833765 0.030640287 0.0087310625 0.09736174
000030 fe 40 ae 3d 8a 12 5e 3d df 3b c2 3c 73 f5 ae bd
       0.0850849 0.0542169 0.02371019 -0.085429095
000040 d3 eb 86 bd e2 f8 06 3d 25 03 15 bd 97 4e 70 bd
       -0.06587949 0.032952197 -0.036379952 -0.0586687
000050 19 b6 07 3d 9e 77 a3 3d e5 b5 c4 bc eb 2c ec bb
       0.033132646 0.079817995 -0.024012515 -0.007207503
000060 e8 49 ae 3d e5 08 f3 3d 6e 87 ed 3c 5f a5 01 3c
       0.0851019 0.11866931 0.028995242 0.007912963
000070 73 c4 fa bc a0 73 96 bc 39 23 11 bd 34 4b 60 bd
       -0.030611252 -0.018365681 -0.03543398 -0.05475922
000080 7e 06 94 3d 93 5e 35 3d ec 05 79 bd cf e4 23 bd
       0.07227801 0.044279646 -0.060796663 -0.04001313
000090 ef bd f9 3c 92 69 17 bd 84 ab 82 3d dc e9 12 3c
       0.030486075 -0.036965914 0.0638037 0.008966889
0000a0 7e e8 28 3d b5 6e 37 bd 6b f0 c6 bd 8a e6 76 3c
       0.041237347 -0.044783313 -0.09713825 0.015069613
0000b0 dc 10 c0 3c 48 d9 a1 3d ae ca ec 3c 0a 3a 86 3d
       0.02344554 0.07902771 0.028905239 0.06554039
0000c0 e9 42 96 bb 72 8e 90 3c 27 e9 9d 3d b2 46 bb 3d
       -0.004585613 0.017646048 0.07710486 0.091443434
0000d0 5c 1e 88 3d 37 c4 b2 3c a6 73 2b 3d 60 6c 17 3d
       0.066464156 0.021822078 0.041858338 0.03696859
0000e0 83 1a 67 bc 80 18 27 3d e9 55 83 3b 8c fa 61 bd
       -0.014105442 0.04079485 0.004008044 -0.05517058
0000f0 a1 ce 6b 3d 2a 20 0f 3d 07 33 e7 3c ef 4a 40 3d
       0.057570104 0.034942783 0.028222574 0.046946462
000100 91 74 9c 3d ef 0d d1 bc 3b 51 93 3d 33 e8 81 3d
       0.07639421 -0.02551934 0.07193228 0.063431166
000110 10 7c 28 3d 01 44 e4 bc 5e 9b 44 3d 96 81 52 bc
       0.04113394 -0.027864458 0.047999732 -0.0128482785
000120 87 16 5c 3d 3a 86 4b 3c 0a 88 7f 3d 9c 59 67 3d
       0.05373242 0.012422139 0.062385596 0.056481943
000130 50 39 74 bd d4 65 bb 3d 16 62 4c 3c 27 5a a8 3d
       -0.05962497 0.091502815 0.012474557 0.0822032
000140 d0 aa 80 3d 12 26 9c 3c 85 4b 91 3d 95 23 a0 bc
       0.0628258 0.019061122 0.07094482 -0.019548217
000150 dc e9 04 3d 5c 3a 43 ba 5b d5 78 3d 68 74 8a bc
       0.03244959 -0.0007447356 0.060750347 -0.01690121
000160 86 43 a3 3d 6a 37 ae 3d 86 19 f3 3c ac f9 e6 bc
       0.079718634 0.08506663 0.029675256 -0.028195225
000170 f4 cd fc bc 57 15 44 bd 9d 4d a7 3d ed 69 21 3d
       -0.030859925 -0.047871914 0.081691004 0.03940766
000180 f7 2c 98 bb 92 83 67 3b b1 32 83 3d 04 64 e7 3b
       -0.004644032 0.0035326225 0.06406153 0.0070614833
000190 88 6b ac 3c e4 cf 58 bd 4e 12 41 3d bc 1e 4a 3d
       0.021047369 -0.052932635 0.047136597 0.049345717
0001a0 75 15 c8 3a bf 11 31 3d 54 a4 d3 3c 75 bf 81 bc
       0.0015265184 0.043229815 0.025835194 -0.015838364
0001b0 9f e0 97 3d ac 51 63 3d 27 92 0c 3d 26 94 5c 3d
       0.0741589 0.05549781 0.03431907 0.053852223
0001c0 2a 93 2c bd 90 fa 1a 3d ca 4c f4 3c 04 35 32 3d
       -0.042132534 0.03783661 0.029821772 0.04350759
0001d0 a1 f2 86 bb 06 43 31 3d bc 3d 8c 3b f0 a9 72 3d
       -0.004118279 0.04327681 0.0042798202 0.059244096
0001e0 b9 65 ec 3b 15 9e f4 3c 9b 50 11 3d ce 89 c2 3d
       0.0072142747 0.029860536 0.035477262 0.094989404
0001f0 a8 19 08 3d c0 ed 80 bd 16 9b 63 bd 57 10 82 bd
       0.033227593 -0.06295347 -0.055567823 -0.06350773
000200 1a 79 f2 bc 6a 4c d2 3d b5 96 e2 3c a1 93 09 3d
       -0.029598761 0.10268481 0.027659753 0.033588056

fc3.weight f4 [100, 132]
000000 93 9f 7d bd a6 56 08 be 48 83 ae 3c 76 cd 5e 3d
       -0.06191976 -0.13314304 0.021302834 0.05439516
000010 5c 01 b0 bc 77 e4 98 3d bd 54 13 bd 91 7e ce bd
       -0.021485023 0.07465451 -0.035969485 -0.100827344
000020 b0 20 99 bd fd b7 7a bc 9c 67 d3 3d 32 df 72 3d
       -0.07476938 -0.015302655 0.10322496 0.059294887
000030 d5 1a 0f bc 8e 96 88 bd cf 31 05 3e f1 04 03 3b
       -0.008734425 -0.06669341 0.13007282 0.001999196
000040 55 ea 76 bd 5b 02 0a 3d 18 5e 55 3d 80 1f 50 36
       -0.06028207 0.033693653 0.052091688 3.101275e-06
000050 c5 3c 1b bd c6 f3 af bd e1 0b b0 bb b9 f5 08 3e
       -0.03789975 -0.08591418 -0.00537251 0.13374986
000060 1c c9 3e 3b 5c 6e cc 3a 58 0e aa 3c d7 58 f2 bb
       0.002911157 0.0015596855 0.020758793 -0.0073958444
000070 a1 1c a1 3c 3a 7f 13 3a e7 cf e9 bc 6e 36 37 bc
       0.019666972 0.0005626563 -0.028541518 -0.011182411
000080 b3 68 06 3e 94 75 fe 3d ab ac d9 3d 98 02 57 3d
       0.13125877 0.1242477 0.10628637 0.052492708
000090 cc 7c 6d 3d 45 3a fa 3c 85 e8 8e 3d 0b 92 50 3e
       0.057980344 0.030545363 0.06977943 0.20368211
0000a0 85 9b 26 bb b9 77 98 3d fd b7 3f bc ad 23 9a bd
       -0.0025422287 0.0744471 -0.011701581 -0.07526336
0000b0 0c 83 14 3c 6f 4d 24 bd 65 36 05 3d 9b a8 c3 bc
       0.009064447 -0.04011291 0.032522578 -0.023884108
0000c0 08 82 8c b9 8f 87 71 bc e6 54 9a 3d 37 c5 69 bc
       -0.00026799762 -0.014741792 0.07535724 -0.014268211
0000d0 49 7f 3c 3e 8f 54 40 bd fb b9 a9 bd 58 18 b0 bc
       0.1840793 -0.04695564 -0.08287426 -0.021495983
0000e0 c5 a1 dc 3d bc 02 85 bd ca 6e b8 bd 2b 15 c6 3d
       0.107730426 -0.06494662 -0.09005506 0.09672006
0000f0 72 61 28 bd e5 40 2f bd 76 bd 9b 3d 54 b8 a8 3d
       -0.041108556 -0.042786498 0.07604496 0.08238283
000100 28 c6 82 3c d2 82 c2 bc 42 91 5e bd 35 24 15 b9
       0.015963629 -0.02374402 -0.054337747 -0.00014223235
000110 3e 51 9c bd cb 83 d8 bd f1 79 5a 3d 15 bd ae 3d
       -0.07632683 -0.105720125 0.05333895 0.08532158
000120 a8 ce 9b 3b 32 95 fe 3d 83 67 ed 3c c7 1f 9c bc
       0.00475486 0.124308005 0.028980022 -0.019058121
000130 3b b4 6b 3d b1 4b b5 bc 60 5c 10 bd 70 3b f2 3d
       0.057544928 -0.022130819 -0.035244346 0.11827743
000140 f6 a7 e5 bc 69 a3 2a 3d 66 3b 8a 3c 60 6f 5a 3d
       -0.028034192 0.041659746 0.016874027 0.05332887
000150 4a 02 73 bd f0 27 cc bc d0 a3 83 bd 73 60 08 be
       -0.059328355 -0.024921387 -0.06427729 -0.13318042
000160 06 d2 d1 3d 23 49 c1 3d 9f e0 b6 bc be 73 a3 bc
       0.10245137 0.09437778 -0.022323905 -0.019952651
000170 c1 ac 7e bd 78 8a 6a bd 8a d8 13 3d 99 a1 09 3e
       -0.06217647 -0.05726096 0.03609518 0.13440551
000180 d1 d2 c3 bd 22 02 ea 3a 2e fa 84 3b ad 37 8e bc
       -0.095616944 0.0017853419 0.004058144 -0.017360533
000190 a5 1d 1f 3e e4 88 82 3d 81 1e c9 3c 3a 9e 5e 3d
       0.15538652 0.06373766 0.024550678 0.054350115
0001a0 2b ae 63 3d f4 62 12 3e 4d 0a 49 3d 7e 3b 2c 3d
       0.05558602 0.1429556 0.04908209 0.042048924
0001b0 3c a9 a7 bc e9 08 a7 bd 28 69 20 bc 35 76 a0 3c
       -0.02046644 -0.08155996 -0.009790696 0.019587616
0001c0 db 0e f5 bc a7 fb 7d 3d 46 3c 63 bd c3 39 16 3c
       -0.02991431 0.062007573 -0.055477403 0.009169045
0001d0 f8 53 c7 bd b2 1b 93 3d 9e af 54 bc ca cb bb bc
       -0.09732813 0.07183017 -0.0129813235 -0.022924323
0001e0 7b 62 aa 3d b0 08 f1 3c b2 4b 25 bd 76 c3 1f 3e
       0.08319565 0.029423088 -0.04035539 0.15601906
0001f0 bc c1 f3 bc b8 b3 73 bd a0 2d 0a be 76 4c fa 3d
       -0.029755466 -0.059497565 -0.13493967 0.12221615
000200 8e 16 07 be f5 bd 3e bd 07 1e 50 3d f4 6a bf bc
       -0.13192198 -0.046567876 0.050809886 -0.023366429
000210 e7 fc da 3c b4 4f e9 3d 12 02 8c 3d 04 79 06 bc
       0.026731921 0.11392155 0.068363324 -0.008207563
000220 9a 4f 79 3d 8b 81 9b 3c 4e d9 c8 3c 8e 24 42 bd
       0.06086693 0.01898267 0.024517681 -0.047398143
000230 fb 50 01 bd 62 82 15 bd 24 ea 2a bc f6 e2 67 bd
       -0.03157137 -0.036501296 -0.0104318 -0.05661293
000240 99 4b 5b 3d db f2 1c be 5a 06 b2 3d ce 66 84 3c
       0.053538892 -0.15327017 0.08692618 0.016162302
000250 79 37 8e bc e7 77 99 bd ee 18 8d 3c fe 2e 25 bd
       -0.017360436 -0.07493573 0.017223801 -0.04032802
000260 7c 59 e6 bd 8e 69 7a bd ed 7d 6a bc b9 2b a0 3d
       -0.112475365 -0.06113582 -0.01431225 0.078208394
000270 3d 49 7f 3d 04 73 86 3d 81 fa c6 3d 39 81 4c 3d
       0.062325705 0.06564906 0.097157486 0.049927924
000280 c6 90 d2 3b 17 7e b9 bd 25 47 c0 bd 48 28 4b 3d
       0.0064259497 -0.09057253 -0.0938857 0.049598962
000290 29 16 c6 3d ee 83 70 bd fc 87 51 3d bd d0 fe 3b
       0.096721955 -0.058719568 0.051155075 0.0077763484
0002a0 cf 3e 85 3d 93 c2 9e bc de c8 97 3c cb 01 43 bd
       0.065061204 -0.01937989 0.018528398 -0.04760913
0002b0 23 bd 93 bd b0 4d af 3c f8 31 cb bc b0 4f 3d 3d
       -0.07213809 0.021399349 -0.0248041 0.046218574
0002c0 a9 fa a2 3a d4 ec de bd e3 9b e8 3b 77 b7 cf 3d
       0.0012434322 -0.10885015 0.0070986613 0.10142415
0002d0 99 70 a3 3d 41 8e c8 bd de dc b2 bd 5f 69 96 bd
       0.07980461 -0.09792758 -0.08733533 -0.07344317
0002e0 a9 7d b8 3d af 92 d9 bd 4a a9 da bd e4 c9 14 bd
       0.09008343 -0.10623681 -0.106768206 -0.03632535
0002f0 eb a4 8c 3d cf 29 82 3c 97 00 ed 3d 97 f4 35 bd
       0.06867393 0.015889077 0.11572378 -0.044422712
000300 b1 2e 50 bd d9 a2 ca 3d b1 d5 8e bd 43 73 15 bd
       -0.05082578 0.09894342 -0.06974352 -0.036486875
000310 85 23 bc 3d 23 b3 25 bd bb 49 1e 3d 34 4e 13 3a
       0.09186462 -0.04045404 0.038644534 0.0005619258
000320 6c 7e 53 3c c4 fb 0d 3e fb 8d 84 bd d3 3f 86 bb
       0.012908559 0.13865572 -0.06472393 -0.004096964
000330 e8 e3 fa 3c fc a3 81 39 95 22 86 bd 44 bf 73 bd
       0.030626252 0.00024726975 -0.06549565 -0.059508577
000340 25 5a 23 bb 43 43 b1 3b 3e 5f fd 3c 36 e5 87 3d
       -0.0024925556 0.0054096295 0.030929204 0.066355154
000350 55 37 af 3d 48 e9 46 bc 74 1b 00 3c 64 6b 8d bd
       0.085554756 -0.0121405795 0.007819045 -0.06905249
000360 e8 1d 99 bd 34 38 3a bb 17 cd c9 3d 1f cf ca 3d
       -0.07476407 -0.0028414847 0.09853571 0.099027865
000370 6c 56 3c bd 06 e7 46 3d ec 64 db 3d ea 38 84 3d
       -0.045980856 0.048560165 0.10712609 0.06456168
000380 84 13 c2 bd c7 a5 19 bd 54 fd 6b 3d 0b 95 c4 3d
       -0.094763786 -0.037511613 0.05761464 0.0959874
000390 38 11 1e bd ea 19 5b 3d c5 7d f8 3d 54 40 f7 3c
       -0.03859064 0.05349151 0.12133364 0.030182041
0003a0 8b ba c8 bd d4 99 8e 3d 20 35 c1 3d 6f d0 f0 3c
       -0.09801205 0.06962934 0.09433961 0.029396264
0003b0 4e e0 11 bd 18 84 c2 bd 61 f8 90 bd fc 33 77 3d
       -0.035614304 -0.09497851 -0.070786245 0.06035231
0003c0 b9 0e 55 3d 38 9f 0c bd f8 cb a9 bd 5f f3 ac 3d
       0.052015994 -0.03433153 -0.08290857 0.08444857
0003d0 8c 31 26 bd 24 20 41 3d ca 58 38 bd 9c 9c 80 3d
       -0.040574595 0.047149792 -0.04500655 0.06279871
0003e0 29 b4 84 3d 83 b2 09 bd 5b 9b e3 bd 42 f0 a8 3d
       0.06479675 -0.033617508 -0.11113616 0.082489505
0003f0 60 39 5f bc cb eb e1 bb d2 2f da bd f0 da a4 3c
       -0.013624519 -0.006894564 -0.10653652 0.020123929

fc3.bias f4 [100]
000000 ee 62 c2 bc d8 64 a9 3c 46 73 7c 3d f8 c7 eb 3c
       -0.023728814 0.020677969 0.06163337 0.028781876
000010 d0 67 b1 bd f8 a9 aa 3d 15 e7 e0 3d 19 3c 0a bd
       -0.08662379 0.083332 0.109815754 -0.03374872
000020 00 3a ac 3d 9e a3 05 3d e3 1e 9d 3c d0 3c d1 3d
       0.084095 0.03262674 0.019179767 0.10216677
000030 ae ae ce 3d 2a fe c7 3d 26 f0 b0 3d f0 bc 94 bc
       0.10091911 0.09765275 0.08639555 -0.018156499
000040 26 e6 82 bc 9a 77 e9 3c a1 76 28 bd 02 f0 06 bd
       -0.015978884 0.028499413 -0.04112876 -0.032943733
000050 ed 8d a3 3d 74 be db 3b 85 a0 ec bc d5 65 65 3d
       0.079860546 0.0067060534 -0.028885135 0.056005318
000060 57 47 85 bc 7e ea ed bb e9 d4 66 3c 69 f2 e2 3d
       -0.016269369 -0.0072606197 0.014088848 0.11081392
000070 9c ee df 3d 3a a5 e2 3d 68 26 12 bd 40 6a 86 3d
       0.10934183 0.11066671 -0.03568116 0.06563234
000080 ff dc 98 3d 62 fb f1 3c 1c 75 eb 3c 05 89 20 3d
       0.07464027 0.029538814 0.028742366 0.039193172
000090 a9 ac db 3d 09 7c dc 3d 8c 4a 44 3d 13 b5 18 3d
       0.10726292 0.10765845 0.047922656 0.03728206
0000a0 4d e7 3e bd 33 1e 74 3d 79 fc 19 3d 80 ee 14 3d
       -0.046607304 0.059599113 0.037594292 0.036360264
0000b0 66 99 bd 3d 4e 3f 69 bb 96 ca 8c bc a5 c3 35 3d
       0.09257774 -0.003559071 -0.017186444 0.044376034
0000c0 00 c4 51 bd 0c 32 f1 ba 0c 09 46 bd 44 81 7c 3d
       -0.05121231 -0.0018401756 -0.04834847 0.061646715
0000d0 43 82 16 bd b3 2e 9d 3d f2 09 18 bd aa 4b 8f 3d
       -0.03674532 0.07674923 -0.03711886 0.06996854
0000e0 75 4a b7 3d 64 16 89 3d db b1 17 3d 37 52 8d ba
       0.089497484 0.06693724 0.03703485 -0.0010781948
0000f0 73 91 04 3c 6f 06 bf 3a ff 03 e7 3d 52 39 cb 3b
       0.008091318 0.0014574061 0.11280059 0.0062019015
000100 71 0d 35 3d ec f6 1b 3d 21 02 70 3d ad dd 3c bd
       0.04420227 0.03807728 0.05859578 -0.046109844
000110 12 84 90 3d 64 10 3b bd 0e ef e1 3c 08 21 00 bc
       0.070564404 -0.04566993 0.02757981 -0.007820375
000120 e1 45 a4 bd 8b 60 ad 3d 1a d6 e3 3c d6 6b 8a bd
       -0.08021141 0.0846568 0.027812053 -0.06758849
000130 f4 3e 03 bd 35 b3 c9 3d ce 3a 6f 3c 0d ae ac 3d
       -0.03204246 0.09848634 0.0146014225 0.08431635
000140 04 d0 28 bd 4c 47 81 bd f0 b0 2e 3d 03 4e 30 bd
       -0.041214004 -0.06312427 0.04264921 -0.043043148
000150 bb fd a6 bb 4f 31 04 3e bd 4b 0f bc 05 4b e2 3d
       -0.005096165 0.12909435 -0.008746085 0.11049465
000160 67 11 74 3d 29 16 83 bd 5d e5 84 3a ea cf 4f 3b
       0.05958691 -0.06400711 0.0010139156 0.003170962
000170 d0 7e 87 bc 16 cb 54 bd 37 2b f5 bc e0 1e c8 3d
       -0.016539961 -0.05195149 -0.029927833 0.09771514
000180 75 73 2a bd 68 15 64 3c 52 1c 06 bd 16 e1 43 3d
       -0.041614015 0.013921119 -0.032741852 0.04782208

fc4.weight f4 [10, 100]
000000 06 81 ba bd f1 2e 7c 3d 74 d8 24 be 54 b5 23 be
       -0.091066405 0.061568204 -0.16098195 -0.1598714
000010 44 fa 65 bc a3 68 7d 3d ad c7 b3 bd 52 be a4 3d
       -0.014036719 0.061867367 -0.087783195 0.08044113
000020 f0 a4 24 be bf fb 97 3d fb d2 e0 3d f2 d9 ef bd
       -0.16078544 0.07421064 0.10977741 -0.11711492
000030 bd f2 1b 3e 83 6b 6a bd 13 2a 2f bd 86 ea 9f 3c
       0.15229316 -0.057231437 -0.042764734 0.01952101
000040 66 f5 fc bd f0 2c a7 3c 1c ae 1c bd 59 d9 44 bd
       -0.123514935 0.02040717 -0.03825198 -0.04805884
000050 af 71 c0 bd d2 3a aa bd ab 3a 4e bd 7b 6f 06 be
       -0.093966834 -0.08312 -0.05034892 -0.13128464
000060 b3 ad a1 bd 17 45 30 be eb 1a 90 3c 59 a9 7d bd
       -0.078944586 -0.17213856 0.01759096 -0.06192908
000070 4e 47 52 be d3 7e f6 3c b1 fe f1 bd b7 93 cb bd
       -0.20535013 0.030089771 -0.11816157 -0.09940284
000080 b6 19 c7 3d ac d5 31 3d 6f b2 75 bd 97 ce 26 be
       0.09721701 0.043416664 -0.05998462 -0.16289745
000090 3d 86 f4 bd 79 9d 47 3c b5 e0 92 3d 7b 6c 22 be
       -0.119396664 0.0121835405 0.07171766 -0.15861695
0000a0 14 1d 74 bd 70 71 bb 3d 85 7a e8 3d b5 15 30 be
       -0.059598044 0.09152496 0.11351494 -0.1719578
0000b0 f2 73 92 bd 82 a5 34 3b ff 7e 3e be b5 75 a5 bd
       -0.07151021 0.002756447 -0.18603133 -0.080790915
0000c0 d4 30 40 3d 69 40 02 be ba 93 d4 3d 6c 72 05 be
       0.046921566 -0.12719883 0.10379739 -0.1303193
0000d0 22 68 4e 3d d4 21 f7 3d f5 12 e5 bd 0e cb 24 bd
       0.050392278 0.12066999 -0.111852564 -0.04023271
0000e0 bf b8 90 3c dd b3 e2 bd bc 65 66 bc a7 9e 81 bd
       0.017666219 -0.110694624 -0.014062341 -0.06329089
0000f0 3c b9 68 3d a9 45 04 be 8a c3 60 bd d2 e7 c1 bd
       0.05681728 -0.12917198 -0.05487398 -0.09468044
000100 33 4f 35 bd 68 30 b3 3d c8 98 10 3e a8 7f 2b 3e
       -0.044264983 0.08749467 0.14120781 0.16747916
000110 5a 89 51 3d 1a 9f 33 bb 2b cb 4e be 30 23 0b 3b
       0.05115638 -0.0027408064 -0.2019469 0.002123069
000120 a8 62 27 3d 00 4d 45 be 60 df 1b be a1 10 03 3e
       0.04086557 -0.19267654 -0.1522193 0.12799312
000130 8b 05 12 be 6d f2 ea 3d 08 b2 41 bd e8 7f cb 3d
       -0.14259927 0.1147202 -0.047288924 0.099365056
000140 f3 b3 d4 3d ff 87 34 3d 34 12 c3 3d 9e 68 dd 3c
       0.10385885 0.04407501 0.09524956 0.027027424
000150 78 b9 95 bd f7 80 61 3c 15 17 9e 3d 42 58 11 bd
       -0.07310766 0.013763658 0.07719246 -0.03548456
000160 9d 32 5c bd 8d 05 08 be df e8 e6 bd 9b 9c 58 bd
       -0.053759206 -0.13283367 -0.112748854 -0.052883726
000170 b8 3d 96 3d e0 f4 8d bd 8e 90 53 3d a0 1c de 3d
       0.07335991 -0.06931472 0.05165153 0.108453035
000180 f2 28 84 3d 2f 7d ba 3c 71 90 ed 3d 82 cf e6 3d
       0.06453122 0.02276477 0.11599816 0.11270048
000190 ac d5 18 be 18 f8 e8 bc 14 4d ab 3c 74 f4 d0 3d
       -0.1492526 -0.028438613 0.020910777 0.10202876
0001a0 a5 f3 00 be 0b 41 3f bd d1 b2 c3 3d 7c 0d a3 bd
       -0.12592943 -0.04669289 0.09555591 -0.07961556
0001b0 13 a2 dd bd 4d f4 bb bc 49 60 97 bd 7b b7 75 3d
       -0.10821929 -0.02294364 -0.07391412 0.059989434
0001c0 fd 1e ec bd 59 25 c1 3d 5d 02 ff 3d f5 5f e9 bd
       -0.11529348 0.094309516 0.12451623 -0.113952555
0001d0 6b 98 b0 bd 81 30 b3 bd ea be 87 bc 6d 16 a8 bd
       -0.086228214 -0.08749486 -0.016570527 -0.082074024
0001e0 c6 2e 44 be ed 9a fa bd f0 5c b6 bd d9 fc fc 3d
       -0.19158468 -0.12236581 -0.08904445 0.12352914
0001f0 74 61 28 bd 40 48 a1 bc 9b f7 34 be 1f 21 01 3e
       -0.041108564 -0.019687772 -0.17672579 0.12610291
000200 c2 79 8e 3d 18 ac 9e 3d f7 d1 43 bd 99 26 cb 3d
       0.06956817 0.07747668 -0.04780766 0.09919471
000210 cd d0 50 be 5a b6 d8 bd b1 9e 99 3d fe 00 40 bb
       -0.20392151 -0.10581656 0.07500971 -0.0029297466
000220 61 72 c1 3d 88 a8 06 3e 3e 24 e6 bd 44 db 8d bb
       0.09445644 0.13150227 -0.112373814 -0.004329117
000230 12 7c c2 bd 67 cf 7b 3c 34 69 3c be 89 90 59 3d
       -0.09496321 0.015369273 -0.18399507 0.053116355
000240 bd ab 0a 3e a4 7a 3f be 49 a4 54 3d 2d 16 07 3e
       0.13542075 -0.18699127 0.051914487 0.13192053
000250 d4 27 e6 bc e5 ad 8f 3b af 2c 5a be 23 ff 06 3e
       -0.028095163 0.0043847435 -0.21306108 0.13183264
000260 06 71 37 bd 92 6c 09 bd b5 be 78 bd 2c a0 8b 3d
       -0.044785522 -0.033550806 -0.060728747 0.0681766
000270 be 51 cd bd 7a 27 88 bd 59 50 d3 3d 42 1a 05 be
       -0.10025357 -0.066481546 0.103180595 -0.12998298
000280 75 d7 dd bd 44 74 f4 3c 7a b5 15 3e 06 d2 86 3d
       -0.10832111 0.029840596 0.14620009 0.065830275
000290 a5 08 e1 3d 17 60 c8 bd 03 8c 42 bd d9 a7 2d 3d
       0.10987977 -0.09783953 -0.047496807 0.0423964
0002a0 7b a6 1c be 45 9b 2b bd ae c7 ed 3d d1 7f 90 bb
       -0.15297882 -0.041896123 0.116103515 -0.004409768
0002b0 38 ac 3c bd 4e a4 b1 3d 5f 36 98 3d 1f 67 c3 bd
       -0.046062678 0.08673917 0.074322455 -0.09541153
0002c0 47 19 6f bd 92 ac 06 be cc 3a f6 3d 60 38 19 bd
       -0.058373716 -0.13151768 0.12022933 -0.03740728
0002d0 c5 d9 aa bd 5f cc 9e bd 3d b4 29 be 7b 6c 16 be
       -0.083423175 -0.077538244 -0.16572662 -0.1468982
0002e0 94 d7 5c be a2 cf 68 3d c8 51 18 be 1d 85 96 bd
       -0.21566612 0.05683864 -0.14874947 -0.07349608
0002f0 db d1 a5 3d c1 04 5c bc ab 44 33 be 9e 5e 88 bd
       0.080966674 -0.013428868 -0.17506664 -0.06658672
000300 45 89 82 bd bb a5 2a bc 2c 31 e2 bd e7 b2 95 3d
       -0.06373838 -0.01041549 -0.11044535 0.073095135
000310 fb bd 17 3c 4e 46 a4 3d 5c a4 c5 3d a7 1f 1b be
       0.0092616035 0.08021222 0.0965049 -0.15148793
000320 e7 a7 65 3d ac 31 d5 bd b6 a9 9a bd 5e fb 86 bd
       0.056068327 -0.10409865 -0.07551901 -0.06590913
000330 95 dc 8b 3c 7c b3 7b 3d 17 d9 90 3d 10 82 da b9
       0.017072955 0.061450467 0.070726566 -0.00041677104
000340 74 89 1d 3d 50 f8 be 3d 44 7b dc 3d 0e 2c 7f bd
       0.038461164 0.093247056 0.107656986 -0.062297873
000350 f0 0f 02 bd f3 d0 dd bd 98 82 d6 3d d5 54 af 3d
       -0.03175348 -0.108308695 0.104741275 0.08561102
000360 e3 bb 09 3d 4f 11 7f bd 39 38 ed 3d a5 30 09 be
       0.03362645 -0.062272366 0.11582989 -0.13397463
000370 90 3c 94 bd 71 71 56 3d 26 af dd bd 28 bb 93 38
       -0.07238114 0.05235428 -0.108244225 7.044367e-05
000380 f9 bb e0 bc 90 5b a9 3d 19 fa 48 3d 03 a9 e1 3d
       -0.027433382 0.08269417 0.049066637 0.110185646
000390 5c db 45 3d fd 8c ce bd b9 61 a5 bd b3 d5 92 bc
       0.0483049 -0.10085485 -0.0807528 -0.017924165
0003a0 bc 06 9b 3d 0b b9 84 3d 7e 09 4c 3d 4b 71 3d bd
       0.07569644 0.06480607 0.04981374 -0.046250623
0003b0 8d 50 9d bd ce 44 1c be 8c 07 b0 3d 8f 24 ac bd
       -0.076813795 -0.15260622 0.085951895 -0.084054105
0003c0 49 fd 60 bd 51 df ec 3c f0 72 a1 3d 15 12 05 bd
       -0.05492905 0.02891508 0.07883251 -0.032487947
0003d0 ba 29 0d be b6 4b 47 bd ef 8c 34 3c 4d 79 99 3d
       -0.13785449 -0.048656188 0.011019929 0.074938394
0003e0 bc 69 0e bd 6e 99 48 be 58 69 aa bd ea f9 18 bd
       -0.034768805 -0.19589779 -0.08320874 -0.03734771
0003f0 b0 d0 2b bd af d6 0a bd 3b fa 88 bd 01 65 7c 3d
       -0.041947067 -0.033896144 -0.06688353 0.061619762

fc4.bias f4 [10]
000000 3f b5 ea bc e7 5b fa 3b 65 c5 5f 3d 15 ba 85 bd
       -0.028650878 0.00764035 0.05463161 -0.06529633
000010 19 10 8e bd c4 e3 58 bd 36 a3 7c bb b3 08 13 3d
       -0.06936664 -0.05295159 -0.003854943 0.035896968
000020 dc ff 5d 3d 93 27 a2 bd
       0.054199085 -0.079177044
