models/best_checkpoint.pth (torch, 999455 bytes, 8 tensors)

fc1.weight f4 [256, 784]
0.006986484 -0.031030962 -0.009525236 -0.017356021 -5.998835e-05 0.025974527 0.00632865 -0.02743458
0.008532736 -0.11334097 -0.24392396 -0.0077150427 0.013796981 -0.0028001145 0.013121214 -0.027102947
0.030993912 -0.018352915 -0.0066515896 0.03111903 0.023997169 0.026005648 0.015277766 -0.020678062
-0.013941364 0.005780168 0.007623896 -0.0073130596 0.035366442 -0.017512701 -0.029178604 0.013985489
-0.00453737 0.032300916 0.0021401234 0.01211936 0.0019634627 0.13602924 -0.24132118 -0.2500814
-0.27470365 -0.53700215 -0.50317705 -0.49708274 -0.34809944 -0.21731247 -0.24337618 -0.2576798
0.10011159 0.033731323 -0.0069852006 -0.027525093 -0.016742643 0.0086178705 0.019070845 -0.020927988
0.030584287 -0.032711066 -0.0063385163 -0.009256244 0.023318555 -0.006248329 0.025922775 0.0056946054
0.7678661 0.18682608 0.27204794 0.11083723 -0.11612617 -1.3178989 -1.2416849 -0.6714505
0.6554625 0.16138496 -0.27466005 -0.39956066 -0.37888435 -0.08922789 0.033008497 0.022379875
0.02866472 0.010890264 0.02215179 0.012328744 -0.00325099 0.0001850687 0.03150783 -0.009295234
-0.00056284666 -0.22944966 -0.26745743 -0.3967645 -0.06209465 0.30175543 -0.19155385 -0.8484747
-1.5099157 -2.7514138 -1.6400666 -0.32220367 -1.102379 -0.39214742 -0.9180882 -0.92781556
-1.0559822 -0.35087508 -0.99423194 -0.7199695 -0.19932732 -0.023171082 0.0194388 -0.010741472
-0.03474079 -0.00131974 -0.002068758 0.032431487 0.2480508 0.12467309 0.054263182 -0.29729214
-0.4272595 0.7028193 -0.8958604 -2.0281305 -1.7946002 -1.0014161 0.9695935 2.2331266
1.4417607 0.23244293 -1.0614408 -0.6576071 -0.880205 -0.60954326 -0.8672063 -0.51398605
-0.21353182 0.01668767 -0.012050778 0.025828969 -0.028623246 -0.003973726 0.015906818 0.0054861195
-0.19946359 -0.030099023 0.055800013 -0.8008215 -0.6448747 -0.7120292 -1.9663936 -2.0678606
-1.8371158 -0.57226443 1.4188298 1.7372574 1.4378932 0.20796683 0.42298114 -0.4790165
-0.65368766 -0.575932 -0.3626081 -0.72690815 0.04091504 -0.0896269 -0.0021270819 0.032552686
-0.018230626 0.023938727 -0.023006057 -0.008515789 -0.36878404 -0.037466493 -0.1820527 -0.44677743
-0.37511143 -0.99578667 -2.2652779 -2.3440487 -1.8192881 -0.3074088 0.14323169 0.862613
0.33729002 -0.34652162 0.30345768 -0.32220563 -1.1588646 0.053316306 -0.39103296 -0.6489556
-0.12503915 -0.122008115 -0.033552147 0.023560803 -0.027021784 -0.012734826 -0.0025449637 -0.16333506
-0.71497595 -0.5295191 -0.6646349 -0.5677984 -1.078022 -1.7352949 -3.0517752 -3.0192144
-2.6793065 -0.4407495 0.13833004 0.357897 0.09066229 -0.16825995 -0.19970006 -0.51088613
-1.6588957 -0.9537556 -1.4661827 -1.3051269 0.090915956 -0.058549836 -0.1297235 0.029382888
0.0008168593 -0.013536212 0.16555539 0.14732547 -0.49647376 -0.9301007 -0.7843125 -0.74046636
-0.97335094 -1.6907123 -1.4897077 -1.5585126 -1.4821917 -0.16002052 0.7802624 1.0491381
1.1519142 0.2399115 -0.65003467 -1.0984602 -2.2302327 -1.5017637 -1.4965923 -1.32948
-0.25703904 -0.11924086 -0.11253316 -0.031826194 -0.00086915866 0.0012379698 0.16765518 -0.09784762
00000000: e0ee e43b a534 febc bc0f 1cbc 372e 8ebc
00000010: 009c 7bb8 88c8 d43c 9060 cf3b 7cbe e0bc
00000020: e4cc 0b3c 4f1f e8bd 34c7 79be 78ce fcbb
00000030: bc0c 623c 2082 37bb 5cfa 563c 0007 debc
00000040: f2e6 fd3c da58 96bc 94f5 d9bb 56ed fe3c
00000050: b695 c43c cc09 d53c 984f 7a3c 0a65 a9bc
00000060: 526a 64bc 9067 bd3b e0d1 f93b 64a2 efbb
00000070: 67dc 103d cc76 8fbc f807 efbc 6423 653c
00000080: 38ae 94bb f74d 043d 5041 0c3b 4890 463c
00000090: 70ad 003b 404b 0b3e e61c 77be ab0a 80be
000000a0: f5a5 8cbe f978 09bf 36d0 00bf a181 febe
000000b0: 173a b2be 2987 5ebe 9b37 79be 9bee 83be
000000c0: 4e07 cd3d db29 0a3d 1ce4 e4bb 4e7c e1bc
000000d0: de27 89bc f831 0d3c 763a 9c3c 2c71 abbc
000000e0: e68b fa3c 0afc 05bd 54b3 cfbb 80a7 17bc
000000f0: 8e06 bf3c c8be ccbb 005c d43c d099 ba3b
00000100: df92 443f 564f 3f3e de49 8b3e a1fe e23d
00000110: 8fd3 edbd e9b0 a8bf 88ef 9ebf 2ee4 2bbf
00000120: 64cc 273f 1942 253e 3ea0 8cbe 3793 ccbe
00000130: 21fd c1be 1dbd b6bd eb33 073d 0056 b73c
00000140: 46d2 ea3c 146d 323c ac77 b53c 80fe 493c
00000150: 900e 55bb 000f 4239 5b0e 013d 0a4b 18bc
00000160: 008c 13ba daf4 6abe 2ef0 88be b724 cbbe
00000170: f656 7ebd b07f 9a3e b126 44be a335 59bf
00000180: eb44 c1bf 2a17 30c0 b4ed d1bf e1f7 a4be
00000190: c11a 8dbf 8cc7 c8be d407 6bbf 5285 6dbf
000001a0: 6d2a 87bf e6a5 b3be fc85 7ebf ec4f 38bf
000001b0: 761c 4cbe 48d1 bdbc 1e3e 9f3c 00fd 2fbc
000001c0: 5c4c 0ebd 20fb acba 0094 07bb e1d6 043d
000001d0: 0701 7e3e 9b54 ff3d 1243 5e3d ad36 98be
000001e0: c2c1 dabe f7eb 333f 1b57 65bf e4cc 01c0
000001f0: 76b5 e5bf 672e 80bf 4837 783f 8ceb 0e40
00000200: 9d8b b83f 8505 6e3e 4bdd 87bf f058 28bf
00000210: 1d55 61bf 070b 1cbf 3b01 5ebf 9794 03bf
00000220: 16a8 5abe 95b4 883c a070 45bc 4697 d33c
00000230: 4c7b eabc 0836 82bb 044f 823c e8c4 b33b
00000240: 2f40 4cbe 3a92 f6bc 8e8e 643d a302 4dbf
00000250: 8216 25bf 8c47 36bf c9b2 fbbf d457 04c0
00000260: 9c26 ebbf ec7f 12bf 379c b53f 735e de3f
00000270: e20c b83f 42f5 543e fc90 d83e a741 f5be
00000280: 1358 27bf 4870 13bf c5a7 b9be a716 3abf
00000290: 8796 273d 4f8e b7bd 8366 0bbb f755 053d
000002a0: 6558 95bc 261b c43c 3377 bcbc cf85 0bbc
000002b0: 43d1 bcbe 7776 19bd 066c 3abe 03c0 e4be
000002c0: 9b0e c0be e0eb 7ebf 50fa 10c0 e504 16c0
000002d0: 6fde e8bf b064 9dbe 54ab 123e 35d4 5c3f
000002e0: 47b1 ac3e 486b b1be ce5e 9b3e 23f8 a4be
000002f0: ad55 94bf 3362 5a3d 7935 c8be f421 26bf
00000300: 430a 00be 64df f9bd fa6d 09bd 9602 c13c
00000310: ca5c ddbc bba5 50bc 68c9 26bb 4e41 27be
00000320: aa08 37bf 908e 07bf 8325 2abf 3c5b 11bf
00000330: a0fc 89bf 251e debf 4950 43c0 cf3a 41c0
00000340: c279 2bc0 eba9 e1be 64a6 0d3e 473e b73e
00000350: 27ad b93d 564c 2cbe 2c7e 4cbe 6fc9 02bf
00000360: b256 d4bf 5429 74bf e0ab bbbf 660e a7bf
00000370: 2532 ba3d f4d1 6fbd 3dd6 04be 62b4 f03c
00000380: 8022 563a fdc6 5dbc 5a87 293e 7ddc 163e
00000390: cf31 febe 141b 6ebf b4c8 48bf 348f 3dbf
000003a0: 872d 79bf 4369 d8bf beae bebf 577d c7bf
000003b0: 75b8 bdbf 6bdc 23be 47bf 473f 284a 863f
000003c0: ed71 933f 5cab 753e ac68 26bf 589a 8cbf
000003d0: 22bc 0ec0 cb39 c0bf 5690 bfbf 672c aabf
000003e0: 9f9a 83be 8d34 f4bd c977 e6bd 2f5c 02bd
000003f0: 40d8 63ba 6043 a23a cdad 2b3e 5564 c8bd

fc1.bias f4 [256]
-1.3512301 -0.098848514 -0.07938847 -0.37640423 0.5300445 0.4512302 0.30566382 -0.04901614
-0.65311915 -0.6821845 -0.69545096 -0.3200387 -0.118263155 -0.110906035 -0.46064666 -0.33395875
-2.1637506 -0.0622706 -0.033962153 -0.2224646 -0.1484866 -0.17368077 -0.06574406 -0.5143997
-0.66482747 -0.030638374 -0.078257926 -0.10872694 -0.06910475 -0.050308194 -0.031944863 -1.4314107
-0.053549033 -0.42360726 -0.06492191 -0.07775328 -0.32889587 -0.31690782 -1.2051773 -0.033735886
-1.8270231 -0.033328015 -0.034761958 -2.121192 -0.1741021 0.45334652 -0.03741047 -0.82496196
-0.07329252 -0.37663066 -0.07730673 -0.017161017 -0.05339299 -0.038337797 -0.07683346 -0.07242186
-0.39450017 -1.1238279 -1.1418035 -0.51107633 -0.07461341 -1.4204285 -1.1196007 -0.42237583
-1.7327632 -0.058207907 -0.15124175 -0.050618187 -0.14463033 -1.7179149 -0.1247185 -1.153235
-0.029355606 -0.05096478 -0.06099184 -0.3503037 -0.1004036 -0.095132835 -0.25360483 0.21742898
-0.0573339 -1.0418918 -0.054088946 -0.2792949 -0.074359566 -1.4102764 -0.2815664 -0.44179544
-0.09005917 -0.54725146 -0.023075277 -1.532343 -1.4489144 -0.06289562 -0.29446468 -0.9376766
-0.029762497 -0.17267269 -0.28999805 -0.35070026 -0.09032014 -1.5414388 -0.25554883 -0.045494255
-0.26832464 -0.033061516 -0.031263694 -0.38395926 -0.06908042 -0.97336537 -0.39701712 -0.041059498
-0.26265943 -0.5585265 -0.3674667 -0.029197186 -0.07303151 -1.1296923 -0.337603 -0.017418325
-1.2892808 -0.20813887 -0.223582 -0.035550475 -0.0145435305 -0.060319405 -0.6589226 -0.08014242
-0.012544756 -0.42323494 -0.060372807 -0.029853702 -0.07831131 -0.78940856 -0.41600925 -1.5423793
-1.4835414 -0.22071826 -0.053117342 -0.057883203 -0.06646298 -0.041715212 -0.15423939 -0.05200699
-0.22184941 -0.03323917 -0.077613324 -0.07571446 0.41180196 -0.65862125 0.96683866 -1.3424879
-0.083857484 -0.7519421 -2.8651354 -0.9222996 -0.12240413 -0.0632324 -0.07733844 -0.22063695
-0.3318348 -0.07879347 -0.11234988 -0.4179124 -0.060429774 -0.05824821 -0.073027246 -0.30579573
-0.06689275 -0.055649176 -0.049056083 -1.6352172 -0.7230428 -1.2215133 -0.044913594 -0.24721476
-0.26990405 -0.28831843 -0.059291888 -0.06611899 -0.0044551627 -0.21424328 -0.6244645 -0.4915226
-0.07541263 -0.5010803 -0.43992546 -0.07954923 -0.4906591 -0.03258556 -1.0709275 -0.15049762
-0.34810594 -0.06638066 -0.09829613 -0.029144118 -0.08422406 -0.076499 -0.072616234 -0.21286605
-2.7596765 -0.7230708 -0.76151824 -1.0934262 -0.039255496 -0.42803547 -0.058520842 -0.022235442
-0.29239774 -0.07509034 -0.66035205 -0.08507002 -0.28935027 -0.5086332 -0.845499 -0.6384719
-0.11200174 -0.05701019 -0.09924923 -0.26021045 -1.132232 -0.17810479 0.15274149 -0.051630955
-0.3316418 -1.2171468 -0.31894273 -0.7749875 -0.34231642 -0.00301364 -0.010363262 -0.023199046
-0.15925731 -0.82572067 -0.5068587 -1.0298066 -0.032655112 0.4724317 -0.2649211 -0.060354605
-0.22551753 -1.2676452 -0.10368278 0.063328885 -0.42046624 -0.032527536 -0.091382764 -0.04633603
-0.37859488 -0.3238229 -0.073240876 -0.032312304 -0.19096686 -0.08427015 -0.08027348 -0.031629547
00000000: 1cf5 acbf 1771 cabd 6c96 a2bd 0eb8 c0be
00000010: ffb0 073f a507 e73e f87f 9c3e 26c5 48bd
00000020: d132 27bf a5a3 2ebf 1309 32bf 1ddc a3be
00000030: f433 f2bd b422 e3bd e1d9 ebbe a4fc aabe
00000040: e47a 0ac0 750f 7fbd e61b 0bbd c3cd 63be
00000050: df0c 18be 5fd9 31be d2a4 86bd b3af 03bf
00000060: 2232 2abf 54fd fabc b145 a0bd 3bac debd
00000070: cb86 8dbd f70f 4ebd 9ed8 02bd 7738 b7bf
00000080: 3b56 5bbd 0de3 d8be c7f5 84bd 1d3d 9fbd
00000090: 0a65 a8be be41 a2be 4043 9abf a42e 0abd
000000a0: e5db e9bf f582 08bd 8e62 0ebd 9cc1 07c0
000000b0: d247 32be 091d e83e b93b 19bd b530 53bf
000000c0: 641a 96bd bcd5 c0be fe52 9ebd 4395 8cbc
000000d0: 9cb2 5abd 1808 1dbd dc5a 9dbd ea51 94bd
000000e0: edfb c9be 98d9 8fbf 9e26 92bf e6d5 02bf
000000f0: eace 98bd 9ad0 b5bf 134f 8fbf a541 d8be
00000100: 2fcb ddbf 6a6b 6ebd 1edf 1abe 0455 4fbd
00000110: f919 14be a3e4 dbbf 6a6c ffbd 349d 93bf
00000120: 2b7b f0bc 72c0 50bd 94d2 79bd 025b b3be
00000130: 67a0 cdbd 01d5 c2bd 7ed8 81be b4a5 5e3e
00000140: f4d6 6abd b65c 85bf 5f8c 5dbd beff 8ebe
00000150: d449 98bd f083 b4bf 7929 90be 0333 e2be
00000160: f170 b8bd ac18 0cbf 5d08 bdbc d123 c4bf
00000170: 0776 b9bf 6bcf 80bd 13c4 96be 930b 70bf
00000180: 7bd0 f3bc 1cd1 30be a07a 94be fc8e b3be
00000190: c4f9 b8bd de4d c5bf 4cd7 82be 2f58 3abd
000001a0: d961 89be 836b 07bd 5c0e 00bd 4f96 c4be
000001b0: 097a 8dbd 792e 79bf d445 cbbe 012e 28bd
000001c0: 4c7b 86be 98fb 0ebf 9824 bcbe f02e efbc
000001d0: 8b91 95bd c299 90bf 4dda acbe e0b0 8ebc
000001e0: 2707 a5bf 5b22 55be aef2 64be 609d 11bd
000001f0: fd47 6ebc 7b11 77bd 27af 28bf b621 a4bd
00000200: 8588 4dbc 40b2 d8be 7a49 77bd c08f f4bc
00000210: ae61 a0bd ae16 4abf 2aff d4be af6c c5bf
00000220: afe4 bdbf f803 62be 9291 59bd f016 6dbd
00000230: be1d 88bd 92dd 2abd eef0 1dbe 4805 55bd
00000240: 7e2c 63be cc25 08bd bcf3 9ebd 2f10 9bbd
00000250: b5d7 d23e 679b 28bf bd82 773f a5d6 abbf
00000260: 79bd abbd 477f 40bf 615e 37c0 d41b 6cbf
00000270: 04af fabd fd7f 81bd 9e63 9ebd a7ee 61be
00000280: 40e6 a9be 795e a1bd b217 e6bd 9df8 d5be
00000290: 3685 77bd ad95 6ebd 4f8f 95bd 4291 9cbe
000002a0: 11ff 88bd 64f0 63bd 08ef 48bd cc4e d1bf
000002b0: 5519 39bf 8c5a 9cbf 51f7 37bd de25 7dbe
000002c0: dd30 8abe 799e 93be 0ddc 72bd 6569 87bd
000002d0: 9dfc 91bb 9762 5bbe e8dc 1fbf daa8 fbbe
000002e0: f071 9abd cc46 00bf e93d e1be b5ea a2bd
000002f0: ab37 fbbe 7078 05bd 2714 89bf 0c1c 1abe
00000300: f13a b2be 95f2 87bd 7b4f c9bd a5bf eebc
00000310: aa7d acbd 82ab 9cbd d2b7 94bd 8ff9 59be
00000320: 8a9e 30c0 2b1b 39bf dcf2 42bf 64f5 8bbf
00000330: 5fca 20bd 7727 dbbe 8db3 6fbd 1a27 b6bc
00000340: 28b5 95be f7c8 99bd d50c 29bf 3139 aebd
00000350: b825 94be c935 02bf 9f72 58bf e572 23bf
00000360: 2b61 e5bd 8483 69bd 2e43 cbbd 4e3a 85be
00000370: faec 90bf 1a61 36be 4468 1c3e fb7a 53bd
00000380: f4cc a9be 77cb 9bbf 764c a3be 9565 46bf
00000390: 1944 afbe 7d80 45bb acca 29bc ed0b bebc
000003a0: 5914 23be 6e62 53bf 7ec1 01bf b4d0 83bf
000003b0: 5ec1 05bd 91e2 f13e bda3 87be 6436 77bd
000003c0: 11ee 66be 3342 a2bf a357 d4bd 93b2 813d
000003d0: 5a47 d7be 983b 05bd e326 bbbd d9ca 3dbd
000003e0: 30d7 c1be 1dcc a5be 50ff 95bd e859 04bd
000003f0: d18c 43be d495 acbd 6c66 a4bd fc8d 01bd

fc2.weight f4 [132, 256]
0.76744986 0.019857256 0.036891323 0.30119 -0.113541454 -0.04430607 -1.0505787 -0.016013565
-0.0038004832 0.08326563 0.061931197 -0.035146285 -0.068935096 0.019185316 -0.19523866 -0.13067976
-1.4572291 0.0100458115 0.016741816 0.012459703 -0.047042757 -0.0039744335 -0.0653432 0.1817435
0.07428565 -0.13106269 0.008197493 -0.01205998 -0.2568763 -0.001532942 -0.0024082467 -0.09533402
-0.048206195 -0.19589917 0.06409418 0.0024192466 0.2134303 -0.040910505 -0.6907657 0.03139205
-0.47392613 0.029329313 -0.08497831 -0.8072452 0.018348293 -0.5341121 0.038433395 -0.14376794
-0.08298137 -0.7692754 -0.028432297 0.059485048 0.07292119 0.0927756 0.06481145 0.06525884
0.050611377 -0.30190286 -0.14989015 -0.1546975 0.04754592 -1.116849 0.6129115 -0.14609087
-0.36479875 0.04299309 0.0956016 0.022513324 0.01986095 -0.4006641 -0.03493766 -0.5353051
0.011508963 -0.048949182 -0.013687876 0.0054710926 0.022914976 -0.11698328 -0.117915064 -1.1944163
-0.014018966 0.8181947 -0.050044265 -0.05550785 -0.022068951 -0.075452484 -1.1994518 -0.3506085
-0.07441147 1.0019124 -0.03815598 0.06628911 -0.4031369 -0.045543566 -0.008115395 -0.39814264
0.074071854 -0.026737355 -0.097337715 0.009659149 -0.045813616 -0.35289678 1.0008228 0.06655357
-0.8456417 0.0865306 0.009590982 -0.0057501765 -0.109680235 -0.018452734 -0.30935636 -0.042035986
-0.023148362 -0.43069226 0.834876 -0.09723303 0.01895349 -0.08634524 -0.03831571 0.053094108
-0.37392053 0.011496948 -0.12783656 0.013178779 -0.066148356 -0.09999895 0.14067177 -0.06942446
0.013769815 1.0078686 0.11467046 -0.03753475 -0.0606744 0.95963657 -0.44391376 -0.6687413
-0.16424552 0.02024373 0.101154424 -0.10750323 0.05386448 -0.054428115 -0.04260388 0.027205272
-0.101068355 -0.038396515 -0.042163707 -0.06224306 0.19537404 -0.38621977 -0.28785464 -0.14960812
0.0075683296 0.18237466 -0.29935962 -0.08798347 -0.037189636 -0.11289289 0.12137721 -0.0640878
-0.22784147 -0.023807155 -0.10129728 -0.030260859 0.0023824656 -0.0016379039 0.07316616 0.46703655
-0.010777198 -0.09839758 -0.074963935 -0.19396935 -0.2722805 -0.2930073 -0.061165053 -0.9605569
0.040522665 -0.09108993 0.030930845 -0.085957974 -0.35156012 -0.034051098 -0.18702963 -0.18224475
-0.011993839 -0.28880355 -0.080420025 -0.10285449 0.2153253 0.07101924 -0.2048002 0.05215927
0.38606963 -0.06621932 -0.024150155 0.08504045 -0.044167545 0.07888062 0.048200686 0.009632934
-0.33159652 0.18861836 -0.05101791 -0.6442546 -0.0627517 -0.009958724 -0.0368007 -0.05665413
0.15444677 0.07498061 0.25333497 0.094203584 0.040598005 -0.11955539 0.75301963 -0.73991174
-0.07661841 0.0366954 -0.7342835 -1.0609385 0.12777154 0.0049633705 0.055288494 -0.08004371
-0.3649742 0.33447787 -0.16309124 -0.060025256 0.17743847 0.032774396 0.027262395 -0.0803221
0.009844779 -0.25225887 -0.23195931 -0.26010758 -0.07868848 -0.2854698 -0.11444341 -0.002037455
0.028125746 -0.6505609 -0.14024062 -0.45552826 1.0558422 -0.03608676 -0.0227394 -0.048503075
-0.2328615 -0.029481698 -0.018129164 0.06817621 0.026842574 -0.071919195 -0.08481449 0.018056525
00000000: 9877 443f afab a23c 5b1b 173d 9335 9a3e
00000010: 6c88 e8bd 487a 35bd 5d79 86bf e12e 83bc
00000020: 8711 79bb 2c87 aa3d 91ab 7d3d 8df5 0fbd
00000030: d82d 8dbd 862a 9d3c a5ec 47be ead0 05be
00000040: 7c86 babf 3097 243c 2226 893c c823 4c3c
00000050: e8af 40bd f73b 82bb a8d2 85bd f81a 3a3e
00000060: 1323 983d 4c35 06be c74e 063c 3997 45bc
00000070: 4a85 83be 00ed c8ba add3 1dbb 7c3e c3bd
00000080: dc73 45bd cb99 48be cf43 833d 398c 1e3b
00000090: 798d 5a3e c691 27bd 05d6 30bf f394 003d
000000a0: 72a6 f2be 0744 f03c 1c09 aebd 9fa7 4ebf
000000b0: 294f 963c 92bb 08bf 566c 1d3d e737 13be
000000c0: 23f2 a9bd 3cef 44bf d9ea e8bc 98a6 733d
000000d0: b457 953d 2201 be3d debb 843d 6da6 853d
000000e0: e04d 4f3d 0393 9abe ce7c 19be 0569 1ebe
000000f0: 83bf 423d e8f4 8ebf c5e7 1c3f d898 15be
00000100: e7c6 babe 8619 303d c6ca c33d dd6d b83c
00000110: 6eb3 a23c d823 cdbe cb1a 0fbd c109 09bf
00000120: 1790 3c3c f07e 48bd 1d43 60bc da46 b33b
00000130: 30b8 bb3c ee94 efbd 747d f1bd a2e2 98bf
00000140: ceaf 65bc 3575 513f 37fb 4cbd 335c 63bd
00000150: f2c9 b4bc d586 9abd a387 99bf f582 b3be
00000160: 0a65 98bd aa3e 803f 7249 1cbd 96c2 873d
00000170: f667 cebe e48b 3abd 6ff6 04bc 5ad9 cbbe
00000180: fcb2 973d 4c08 dbbc ff58 c7bd 6841 1e3c
00000190: 0fa7 3bbd e3ae b4be f61a 803f 3d4d 883d
000001a0: f97b 58bf f536 b13d 7f23 1d3c fa6b bcbb
000001b0: 08a0 e0bd 302a 97bc f563 9ebe ed2d 2cbd
000001c0: a2a1 bdbc b283 dcbe 6fba 553f 1c22 c7bd
000001d0: 5944 9b3c c6d5 b0bd eff0 1cbd 3579 593d
000001e0: 8372 bfbe b25d 3c3c 96e7 02be ceeb 573c
000001f0: ca78 87bd 40cc ccbd 430c 103e 692e 8ebd
00000200: ca9a 613c d701 813f 59d8 ea3d 0abe 19bd
00000210: b885 78bd beaa 753f aa48 e3be a132 2bbf
00000220: fa2f 28be 2ed6 a53c 0d2a cf3d a72a dcbd
00000230: 00a1 5c3d 04f0 5ebd 6881 2ebd 97dd de3c
00000240: edfc cebd aa45 1dbd dab3 2cbd 94f2 7ebd
00000250: 2210 483e 99be c5be af61 93be df32 19be
00000260: c0ff f73b 6cc0 3a3e aa45 99be ad30 b4bd
00000270: 2954 18bd 6334 e7bd 9d94 f83d 7740 83bd
00000280: 464f 69be 3907 c3bc f374 cfbd 9fe5 f7bc
00000290: 2423 1c3b efae d6ba 24d8 953d 6a1f ef3e
000002a0: d892 30bc ac84 c9bd b186 99bd e79f 46be
000002b0: 5a68 8bbe 0e05 96be 3588 7abd 0fe7 75bf
000002c0: 18fb 253d 5b8d babd af62 fd3c bc0a b0bd
000002d0: b0ff b3be 2a79 0bbd b284 3fbe 5e9e 3abe
000002e0: cf81 44bc 0fde 93be 41b3 a4bd 60a5 d2bd
000002f0: 3c7e 5c3e 8972 913d 25b7 51be f5a4 553d
00000300: ebaa c53e ff9d 87bd 8cd6 c5bc b029 ae3d
00000310: 07e9 34bd 2a8c a13d 156e 453d 74d3 1d3c
00000320: 05c7 a9be 2c25 413e 28f8 50bd dfed 24bf
00000330: f783 80bd ea29 23bc 55bc 16bd 290e 68bd
00000340: 4b27 1e3e 6f8f 993d 1fb5 813e cfed c03d
00000350: 184a 263d 75d9 f4bd e5c5 403f db6a 3dbf
00000360: 1dea 9cbd ea4d 163d 01fa 3bbf d5cc 87bf
00000370: 8bd6 023e c5a3 a23b 3076 623d f5ed a3bd
00000380: e6dd babe af40 ab3e 6401 27be 0bdd 75bd
00000390: 6eb2 353e 723e 063d 6355 df3c ea7f a4bd
000003a0: ff4b 213c 1328 81be be86 6dbe d22c 85be
000003b0: 6d27 a1bd 1929 92be 4e61 eabd d386 05bb
000003c0: f767 e63c 298b 26bf 3d9b 0fbe 003b e9be
000003d0: d625 873f b6cf 13bd fa47 babc 29ab 46bd
000003e0: 3f73 6ebe 9a83 f1bc 9d83 94bc f89f 8b3d
000003f0: f5e4 db3c 5f4a 93bd 38b3 adbd 47eb 933c

fc2.bias f4 [132]
-6.487929 -4.62166 -2.788847 -3.86886 -1.3200905 -3.417134 -4.6303825 0.12492271
-3.398201 0.2630336 -3.291697 -4.4484134 -3.0808556 -0.27817145 -4.790326 -2.7122724
-0.90008193 -3.829084 -0.023883633 -3.4700985 0.0744851 0.04643184 -2.8250172 -0.06301689
0.24406293 -2.7041886 -3.910888 -0.6485682 0.29214495 0.31812242 -0.121189676 0.04632474
-4.6607666 0.11174011 -2.12387 -0.5074568 -3.1447241 -3.592427 -1.0528853 -0.97913426
-4.492902 0.16823061 -3.1064165 -3.8521938 0.6457134 -2.2106886 -3.3851523 0.31936157
-2.106876 -0.6925448 -0.30289224 -1.0579791 -3.8506258 -1.7407663 -1.9471275 -0.041113988
-3.416013 -4.3085256 -3.8964512 -2.8322847 -0.37488085 -3.4932408 -5.374153 0.04166185
-2.857582 -5.6523128 -3.1865842 -2.3659737 -2.5637004 -3.4065824 0.14268908 -3.9525502
-5.2602367 -2.4730916 -4.295588 -0.7503066 -1.934681 -0.43333966 -2.934563 0.21774924
-4.0997896 -2.989722 -3.434843 -1.4323409 -4.1767936 0.14779699 0.12825124 -5.231211
-4.547908 -4.2287693 -3.771365 -4.7644706 0.20352076 -2.4831982 -0.8616484 -3.4574783
-3.7698913 -0.98640984 -3.3188334 -2.106078 -1.2121534 -5.473391 -0.058216 -0.09732118
-0.7136378 -0.07599668 0.11199549 -2.8288236 -1.2614883 -0.028570557 -0.2238872 -2.7030368
-2.3078275 -3.2897978 -4.4971447 -0.70595425 -3.4325829 -1.9078631 -1.556301 -4.6216807
-1.6999207 -3.7744517 0.1788869 -2.925346 -2.0815554 -2.1720665 -3.277943 -1.7835178
-1.7228123 -3.8850598 -1.9669623 -2.242289
00000000: 1d9d cfc0 a4e4 93c0 787c 32c0 679b 77c0
00000010: baf8 a8bf 53b2 5ac0 182c 94c0 7ad7 ff3d
00000020: 207c 59c0 57ac 863e 2aab 52c0 6759 8ec0
00000030: bd2c 45c0 7d6c 8ebe 5a4a 99c0 df95 2dc0
00000040: c56b 66bf b60f 75c0 9ca7 c3bc 1816 5ec0
00000050: a58b 983d 502f 3e3d 15cd 34c0 000f 81bd
00000060: a2eb 793e 6d11 2dc0 fd4b 7ac0 9108 26bf
00000070: 0694 953e f1e0 a23e 4b32 f8bd 03bf 3d3d
00000080: 0025 95c0 00d8 e43d 7ced 07c0 b0e8 01bf
00000090: 2943 49c0 53ea 65c0 f2c4 86bf 8ba8 7abf
000000a0: dac5 8fc0 a544 2c3e 87cf 46c0 588a 76c0
000000b0: 794d 253f ec7b 0dc0 56a6 58c0 5c83 a33e
000000c0: 0ed7 06c0 9e4a 31bf b114 9bbe dc6b 87bf
000000d0: a770 76c0 6ed1 debf 793b f9bf 2467 28bd
000000e0: f59f 5ac0 71df 89c0 755f 79c0 2744 35c0
000000f0: 62f0 bfbe 4291 5fc0 10f9 abc0 9ea5 2a3d
00000100: a0e2 36c0 bfdf b4c0 fff0 4bc0 1d6c 17c0
00000110: ab13 24c0 7205 5ac0 161d 123e 95f6 7cc0
00000120: dc53 a8c0 2247 1ec0 7575 89c0 1814 40bf
00000130: a1a3 f7bf b2de ddbe e1cf 3bc0 a8f9 5e3e
00000140: 7a31 83c0 9b57 3fc0 78d4 5bc0 f256 b7bf
00000150: 4ba8 85c0 1858 173e 4b54 033e 1566 a7c0
00000160: 7688 91c0 1452 87c0 0b5e 71c0 8b76 98c0
00000170: bf67 503e b8ec 1ec0 fd94 5cbf 5347 5dc0
00000180: e645 71c0 5b85 7cbf c467 54c0 fbc9 06c0
00000190: d827 9bbf 0526 afc0 e773 6ebd 5450 c7bd
000001a0: f8b0 36bf 26a4 9bbd e45d e53d 720b 35c0
000001b0: 7378 a1bf cd0c eabc b042 65be 8efe 2cc0
000001c0: 72b3 13c0 0c8c 52c0 9ce8 8fc0 6bb9 34bf
000001d0: 70af 5bc0 dc34 f4bf df34 c7bf cfe4 93c0
000001e0: 0097 d9bf 9e90 71c0 212e 373e de38 3bc0
000001f0: 3438 05c0 2303 0bc0 d1c9 51c0 504a e4bf
00000200: 1d85 dcbf d2a4 78c0 6cc5 fbbf aa81 0fc0

fc3.weight f4 [100, 132]
-0.40382534 -0.3037075 -0.39882648 -0.014444223 -0.7892586 -0.34027728 -0.12355578 -1.0221635
-0.17661001 -0.1642063 -0.21677971 0.28007793 -0.46652988 -0.30549875 -0.68917936 0.31369594
-0.38349682 -1.0686748 -0.25917462 0.3549478 -0.47183707 -0.54339826 -0.652927 -0.7870155
-0.9131251 -0.7736008 1.0690547 -0.5965508 -0.47930047 -0.35984504 -0.54299587 -0.6974435
-0.106118254 -0.49064806 -0.13793053 -0.6464442 0.19740447 -0.82868916 -0.6425555 -0.6126382
-0.22451767 0.059146177 -0.54621565 0.14599219 -0.32664102 -0.85968393 -0.15234804 -0.4113288
0.017566359 -0.2883424 -1.0329542 -0.69405496 -0.6493509 0.18846807 -0.29342082 -0.44762066
0.87051976 -0.42720237 -0.21144436 -0.38125247 -0.8803135 -0.13467257 -0.71042436 -0.9152054
0.21898225 0.17930956 -0.4078388 -0.79066515 -1.1797068 0.68312293 0.08529413 -0.33968082
-0.6750232 0.0005510481 0.2986564 -0.52668685 -1.1026448 -0.40149277 -1.1025814 -0.13668333
-0.26426655 -0.99570847 -0.5079655 0.2606173 0.3164377 -0.36307406 -0.9098976 0.58680326
0.28692016 0.5358471 0.44085795 -0.122873366 -0.59478873 -0.38813242 -0.88212043 -0.09984256
-0.62099403 -0.34744868 -0.38759005 -0.54043347 -0.0949098 -0.21712914 -0.65195245 -1.0851566
-0.32601008 -0.62025565 -0.65426046 -0.26613614 -0.28359377 -0.6826869 -0.5552158 -0.06131774
-0.09869023 -0.46125567 -0.18455519 -0.40887028 -0.233843 0.44560167 -0.6286865 -0.033060234
-0.3125174 -0.31767362 -0.30690494 -0.3477257 -0.53424543 -0.35869977 -1.0270139 0.032810573
0.22689547 -0.29030725 0.01307501 -0.19158019 0.15269616 0.22973448 0.30362114 -0.49824896
-0.6683238 -1.0816517 -0.27969322 -0.43304992 -0.021667784 -0.66642344 -0.79005533 -0.3299299
-0.14899246 -0.9932719 -0.5800359 -0.49505112 -0.25555113 -0.27591717 -1.2925655 -0.16323236
-1.0327965 -1.1838561 -0.15026525 -0.17080963 -0.61891705 -0.28331995 -0.5246443 -0.25692093
-0.6755861 -0.62300026 -0.63598496 -0.37474862 -0.0042965743 0.0449221 -0.1066442 -0.37648234
-0.5202264 0.26718047 -1.0808103 -1.2057626 -0.34388068 -0.18315881 -0.589839 0.13375747
-0.16768883 -0.9530204 -0.27754584 -0.90415627 -1.2774924 -1.109166 -0.53406537 -1.2724261
-0.8966232 -0.849125 0.04155406 -0.97847253 -0.10451067 -0.039196864 -0.20015213 -0.9735113
-0.52948534 -0.11511197 -0.56481254 -1.1505544 0.3652499 0.18721835 -0.2728205 -0.7447311
-0.46450108 -0.6619272 0.037596986 0.0797249 0.33392185 0.0925096 -0.60856825 -0.39858073
-0.24429284 -0.44836277 -0.022838524 -0.43698344 -0.36038065 -0.5095653 0.3940929 -0.053789534
-0.28705236 -1.1237235 -0.39159197 -0.11898194 0.11138788 -0.35987437 0.28330302 -0.2819881
-0.20213398 -0.35181865 -0.6309325 0.28447646 0.26731247 -0.22198544 0.33197677 -0.018054387
-0.11904936 -1.0495346 -1.1962031 0.27377227 -0.7101791 -0.04596159 -0.8409289 0.07601271
-1.1245526 -0.23329556 -0.037162554 0.32233086 -0.0037081197 -0.2817352 -0.20651257 -0.16675694
0.64157665 0.19967683 -0.44742072 -0.731344 -0.5021962 0.056642413 -0.53425246 0.14694335
00000000: 32c2 cebe 8d7f 9bbe fc32 ccbe 76a7 6cbc
00000010: da0c 4abf d338 aebe d00a fdbd 41d6 82bf
00000020: 41d9 34be b225 28be 80fb 5dbe 6066 8f3e
00000030: 01dd eebe 556a 9cbe 0f6e 30bf c19c a03e
00000040: b259 c4be 56ca 88bf 89b2 84be b8bb b53e
00000050: a194 f1be 261c 0bbf 3926 27bf d979 49bf
00000060: 91c2 69bf b40a 46bf c9d6 883f 8eb7 18bf
00000070: df66 f5be 9c3d b8be c701 0bbf a88b 32bf
00000080: 8754 d9bd 3936 fbbe a93d 0dbe 5e7d 25bf
00000090: 6624 4a3e f924 54bf 847e 24bf dbd5 1cbf
000000a0: f6e7 65be 4343 723d cad4 0bbf fa7e 153e
000000b0: 7e3d a7be 3f14 5cbf 2001 1cbe b099 d2be
000000c0: 53e7 8f3c 9da1 93be d837 84bf 96ad 31bf
000000d0: dc3b 26bf c6fd 403e 413b 96be 892e e5be
000000e0: 62da 5e3f 45ba dabe df84 58be 8633 c3be
000000f0: 3a5c 61bf 9be7 09be 5fde 35bf e74a 6abf
00000100: e23c 603e ed9c 373e 3fd0 d0be 0869 4abf
00000110: a200 97bf 25e1 2e3f b0ae ae3d a5ea adbe
00000120: 52ce 2cbf 3674 103a 7ee9 983e f3d4 06bf
00000130: 7723 8dbf 7690 cdbe 6321 8dbf b7f6 0bbe
00000140: f24d 87be c0e6 7ebf 070a 02bf a16f 853e
00000150: 1f04 a23e d8e4 b9be 0def 68bf bd38 163f
00000160: 33e7 923e 472d 093f 22b8 e13e 08a5 fbbd
00000170: 1344 18bf 4bb9 c6be a5d2 61bf 427a ccbd
00000180: 77f9 1ebf cbe4 b1be 3472 c6be d959 0abf
00000190: 1260 c2bd 1a57 5ebe 5be6 26bf 69e6 8abf
000001a0: cbea a6be 13c9 1ebf 9d7d 27bf ff42 88be
000001b0: 3433 91be 92c4 2ebf 9f22 0ebf 4f28 7bbd
000001c0: 1a1e cabd b429 ecbe 09fc 3cbe 7257 d1be
000001d0: 8a74 6fbe e725 e43e 99f1 20bf 2b6a 07bd
000001e0: 4802 a0be 1ea6 a2be a522 9dbe 1a09 b2be
000001f0: 4fc4 08bf 7fa7 b7be 3175 83bf 6164 063d
00000200: 4957 683e 27a3 94be 9138 563c 992d 44be
00000210: 625c 1c3e 843f 6b3e 3b74 9b3e 7d1a ffbe
00000220: 4517 2bbf 9073 8abf f333 8fbe b8b8 ddbe
00000230: a380 b1bc ba9a 2abf 1141 4abf 92ec a8be
00000240: 7b91 18be 1147 7ebf 3c7d 14bf 5777 fdbe
00000250: 99d7 82be 0445 8dbe c972 a5bf 6226 27be
00000260: ad32 84bf 9988 97bf 22df 19be b8e8 2ebe
00000270: 5971 1ebf 500f 91be 174f 06bf 248b 83be
00000280: 36f3 2cbf f27c 1fbf e9cf 22bf 0ddf bfbe
00000290: 47ca 8cbb 3c00 383d 4668 dabd 4bc2 c0be
000002a0: 8f2d 05bf e1cb 883e fe57 8abf 6e56 9abf
000002b0: 2111 b0be fc8d 3bbe b0ff 16bf b8f7 083e
000002c0: 9fb6 2bbe 25f9 73bf 7d1a 8ebe c976 67bf
000002d0: df84 a3bf 27f9 8dbf 82b8 08bf dcde a2bf
000002e0: 1989 65bf 4260 59bf 9734 2a3d 2d7d 7abf
000002f0: b109 d6bd e48c 20bd aef4 4cbe 0938 79bf
00000300: 5a8c 07bf d3bf ebbd 8e97 10bf 5e45 93bf
00000310: 0902 bb3e 2bb6 3f3e 21af 8bbe b3a6 3ebf
00000320: 16d3 edbe 1074 29bf 4cff 193d cf46 a33d
00000330: cef7 aa3e ac75 bd3d 21cb 1bbf c612 ccbe
00000340: e727 7abe ce8f e5be db17 bbbc 4bbc dfbe
00000350: d083 b8be df72 02bf 8bc6 c93e 6a52 5cbd
00000360: 87f8 92be 2cd6 8fbf be7e c8be ceac f3bd
00000370: 541f e43d 7441 b8be 180d 913e bf60 90be
00000380: 36fc 4ebe 9321 b4be cb84 21bf e6a6 913e
00000390: 2edd 883e 2750 63be dcf8 a93e cbe6 93bc
000003a0: 27d0 f3bd 2657 86bf 2f1d 99bf e12b 8c3e
000003b0: 4cce 35bf 3842 3cbd 1e47 57bf 8dac 9b3d
000003c0: 57f1 8fbf 08e5 6ebe c337 18bd 8d08 a53e
000003d0: ed03 73bb 993f 90be 0878 53be 55c2 2abe
000003e0: 5e3e 243f 1578 4c3e 5414 e5be 5c39 3bbf
000003f0: ee8f 00bf e001 683d c5c4 08bf 5178 163e

fc3.bias f4 [100]
-3.549743 -3.8057883 -3.996044 1.1863097 0.6131747 -3.5199544 -4.8107295 -3.5638175
-3.1606753 0.7777916 -2.8921604 -2.7738163 0.52700007 -2.1874444 -0.6366423 0.5427262
0.98491466 -1.476313 -0.8601989 -0.6311702 -3.3603992 -0.38096717 -1.9911556 1.3783832
-2.2461188 -3.1518474 0.77034885 0.97185975 0.7334378 -2.4595084 -3.4204578 0.7540738
-2.339953 -3.988363 0.5139975 -2.890735 -3.1717367 0.41947 0.2539391 -4.227119
-2.3469853 -2.8512707 -1.9898143 -1.8091743 0.61336565 -1.9490986 -3.3299994 -1.1054693
1.0808887 -1.6614084 -3.0678954 0.45103747 -1.4744139 -2.500148 0.6170055 0.17632462
-0.1990765 -4.4197235 -0.32595012 -2.8004637 0.91064465 0.98599607 -3.080227 -1.4861207
-2.6742263 -1.8716991 -3.0893517 -3.9295244 -3.0957136 -2.7870183 -2.2783422 1.0774264
-3.2618463 -2.8955672 -3.3928206 -0.15003236 0.44977045 0.9657395 -3.9955919 -3.6808171
-3.2430894 -4.499292 -3.443291 0.88574654 0.8082158 -3.6607943 0.6493712 1.435991
-0.17467366 -3.7886896 0.3161472 -3.3147066 -2.9733167 -3.7613273 0.13196279 0.80849814
-2.3784819 0.48636538 -2.8523798 -2.7219965
00000000: fd2e 63c0 0992 73c0 2fbf 7fc0 ffd8 973f
00000010: 04f9 1c3f ef46 61c0 7ff1 99c0 9615 64c0
00000020: 8148 4ac0 5a1d 473f 2819 39c0 3586 31c0
00000030: 7ae9 063f 17ff 0bc0 fdfa 22bf 1bf0 0a3f
00000040: 5e23 7c3f d3f7 bcbf ff35 5cbf 5f94 21bf
00000050: c810 57c0 210e c3be 30de febf dc6e b03f
00000060: 69c0 0fc0 deb7 49c0 9535 453f cdcb 783f
00000070: 94c2 3b3f 9668 1dc0 c8e8 5ac0 fb0a 413f
00000080: cac1 15c0 5741 7fc0 5795 033f cd01 39c0
00000090: bcfd 4ac0 c6c4 d63e 4e04 823e 8f44 87c0
000000a0: 0235 16c0 387b 36c0 3cb2 febf 0693 e7bf
000000b0: 8805 1d3f 107c f9bf b61e 55c0 0580 8dbf
000000c0: 905a 8a3f 08a9 d4bf 6658 44c0 62ee e63e
000000d0: 98b9 bcbf 6d02 20c0 13f4 1d3f 718e 343e
000000e0: b6da 4bbe 606e 8dc0 efe2 a6be cc3a 33c0
000000f0: 0220 693f 3d6a 7c3f 7022 45c0 3439 bebf
00000100: 8626 2bc0 d693 efbf f0b7 45c0 547d 7bc0
00000110: 2c20 46c0 825e 32c0 5cd0 11c0 1ce9 893f
00000120: 17c2 50c0 f950 39c0 f923 59c0 15a2 19be
00000130: 5048 e63e b43a 773f c7b7 7fc0 8292 6bc0
00000140: c78e 4fc0 33fa 8fc0 e15e 5cc0 49c0 623f
00000150: 3be7 4e3f 744a 6ac0 313d 263f 8ece b73f
00000160: a7dd 32be e479 72c0 0cde a13e 2724 54c0
00000170: d24a 3ec0 96b9 70c0 4121 073e bcf9 4e3f
00000180: 0c39 18c0 e204 f93e 648d 36c0 3135 2ec0

fc4.weight f4 [10, 100]
-0.6622193 -0.59979606 0.5162481 -0.5423674 -0.27633402 0.7098842 -0.31045142 -1.9457157
-0.7428857 -0.13218392 -0.24745153 -0.6739952 -0.34763473 -0.3373295 -0.3263619 -0.17005213
-0.0031828852 -0.12589484 -0.02344434 -0.013437264 -0.7270578 -1.1787124 -0.50883096 -0.5889869
0.2977707 -1.4219726 -0.32195 -0.5656241 -0.17317761 -0.31426564 -0.34130207 -0.65915996
-0.08355676 -0.3568241 -0.44690394 -0.38036612 -0.3491412 -0.511512 -0.60273093 -0.76753
-0.769907 -2.3090127 -0.39241943 0.17746809 -0.37753332 -0.2976979 -0.46384668 -0.5672873
-0.2731302 -0.32245252 -0.8355239 -0.3138728 -1.0992391 -0.5393106 -0.869537 -0.041012324
-0.61879236 -0.36049932 -0.31925097 -0.029229537 -0.42743027 -0.9798159 -0.83980566 -0.28540295
-0.8922406 -0.7198348 -0.86969477 0.027082289 -0.047455374 -0.32926673 -0.4681917 -0.4073873
-0.4278755 -0.38318798 -0.004660285 0.43595335 -0.25053102 -0.083272904 -1.150639 -1.0395987
-1.4705707 -0.7727224 -0.7175695 -0.456685 -0.19099477 0.09153384 0.10420391 -0.4034197
-0.56870055 -0.025170954 -0.34041646 -0.5484148 -0.118154526 0.08839717 0.103123404 -0.6736133
-0.7933746 -0.5010683 -1.4934211 -0.5611233 -0.63463265 0.025240371 -0.43366197 -0.4462492
-0.054558188 -0.3832434 -0.8039836 -0.5364929 0.4150179 0.06532108 -0.38880327 -0.43876863
-0.5527682 -0.16402756 -0.04622637 -0.15310054 -0.06139564 0.14782955 0.110971764 -0.21070252
-1.8606337 0.35580313 -0.14535113 -0.42434892 -0.15882719 -0.6423401 -0.12703492 -0.48440388
0.099643275 -0.6606143 -0.28352496 -0.2801361 -0.24181482 -0.70280397 -0.3136169 -0.034090716
-0.6537215 0.10204197 -0.058526482 -0.2795197 0.0884369 -0.5594332 0.31576988 -0.18885171
-0.035510287 -0.43880844 -0.40341282 0.20164926 0.013141273 -0.6004123 -0.38012633 -0.17143519
-0.86833507 -0.9708377 -0.17497066 -0.43140572 0.39678887 -0.21762896 -0.14201252 -0.16654591
-0.030076867 -0.13965248 -2.4174292 -0.42973053 0.15277696 -0.89783 -0.058860745 -0.22306818
-0.5400078 -0.7997772 -0.48054433 -0.6164106 -0.71005917 -0.32490095 -0.24855244 0.031742785
0.0051416196 -0.4416713 -0.5601401 -0.7030347 -1.8271528 -0.11362755 -0.6355324 -0.070332475
-0.16483684 -0.27949995 -0.20679936 0.038955692 -0.10085844 -0.516358 -0.013638979 -0.17014427
0.21916406 -0.17311618 -0.009910444 -0.3003146 0.17049518 -0.08421556 -0.4414186 0.30036902
-0.64154583 -0.1319791 -0.24814844 -0.42155468 0.1291356 0.18302864 -0.24034445 -0.40081227
-0.009877439 0.08047972 -1.0295871 -0.3974854 -0.07625199 0.07528806 -0.5348255 0.0581806
-0.15367915 -0.12053685 -0.088503905 -0.19937783 -0.38169 0.11646308 -0.33385724 -0.48801792
0.060572468 -0.75809973 -0.4253754 -0.50453603 -0.16314706 -0.45174497 -0.26888072 -0.23966074
-0.5444302 -0.46999136 -0.10275282 -0.8267139 -0.4727979 -0.09034343 0.023212349 -0.34989867
-0.29553875 -0.47182596 0.23522562 0.21562952 0.22896245 -0.125107 -0.16775489 0.12683323
0.14012371 -0.028470889 0.0038057042 -0.11969286 -0.7285578 -0.314451 -0.016489442 0.092341974
00000000: 3487 29bf 3c8c 19bf d628 043f 97d8 0abf
00000010: a77b 8dbe f9ba 353f 7df3 9ebe 360d f9bf
00000020: c22d 3ebf 395b 07be ef63 7dbe f38a 2cbf
00000030: 2efd b1be 74b6 acbe e818 a7be 2522 2ebe
00000040: f497 50bb 94ea 00be 580e c0bc f827 5cbc
00000050: 7620 3abf 0ce0 96bf bf42 02bf d8c7 16bf
00000060: 6775 983e 3303 b6bf a1d6 a4be becc 10bf
00000070: 7955 31be 6de7 a0be 25bf aebe b5be 28bf
00000080: ce1f abbd a6b1 b6be 98d0 e4be 59bf c2be
00000090: a3c2 b2be 73f2 02bf 934c 1abf d97c 44bf
000000a0: a018 45bf ddc6 13c0 33eb c8be 32ba 353e
000000b0: 0c4c c1be dc6b 98be 507d edbe be39 11bf
000000c0: b9d7 8bbe 7f18 a5be e5e4 55bf f0b3 a0be
000000d0: deb3 8cbf 4210 0abf fa99 5ebf 8afc 27bd
000000e0: 2d69 1ebf 5e93 b8be dd74 a3be c872 efbc
000000f0: 24d8 dabe 37d5 7abf 81fd 56bf 5620 92be
00000100: e169 64bf 1847 38bf 51a4 5ebf addb dd3c
00000110: 9160 42bd a695 a8be d3b6 efbe 1195 d0be
00000120: 7f12 dbbe 3731 c4be 4eb5 98bb 4735 df3e
00000130: 9a45 80be fc8a aabd 2448 93bf 9211 85bf
00000140: a93b bcbf 23d1 45bf a2b2 37bf 9ed2 e9be
00000150: 2294 43be 1876 bb3d dc68 d53d 078d cebe
00000160: 5c96 11bf 5133 cebc 114b aebe ea64 0cbf
00000170: 00fb f1bd 9309 b53d 5d32 d33d ec71 2cbf
00000180: 991a 4bbf 0346 00bf 6c28 bfbf c7a5 0fbf
00000190: 4977 22bf e5c4 ce3c f108 debe c67a e4be
000001a0: 6878 5fbd 7b38 c4be dfd1 4dbf 9957 09bf
000001b0: 3a7d d43e 0fc7 853d 3911 c7be 48a6 e0be
000001c0: 3782 0dbf d7f6 27be dd57 3dbd 63c6 1cbe
000001d0: ff79 7bbd a160 173e 2a45 e33d 67c2 57be
000001e0: 3f29 eebf d42b b63e edd6 14be 4344 d9be
000001f0: 98a3 22be 6770 24bf 7115 02be c903 f8be
00000200: c611 cc3d 051e 29bf 2f2a 91be 006e 8fbe
00000210: 4e9e 77be f6ea 33bf 6592 a0be b5a2 0bbd
00000220: 4b5a 27bf 61fb d03d 77b9 6fbd 351d 8fbe
00000230: 681e b53d 0437 0fbf 97ac a13e 5862 41be
00000240: 3c73 11bd 80ab e0be 208c cebe 257d 4e3e
00000250: 7e4e 573c 9fb4 19bf eb9f c2be b58c 2fbe
00000260: 354b 5ebf d288 78bf 822b 33be 36e1 dcbe
00000270: e927 cb3e 20da 5ebe bb6b 11be 038b 2abe
00000280: c363 f6bc 0f01 0fbe 29b7 1ac0 a405 dcbe
00000290: 9071 1c3e 30d8 65bf f717 71bd fc6b 64be
000002a0: f43d 0abf 33be 4cbf e809 f6be 16cd 1dbf
000002b0: 70c6 35bf 6b59 a6be 8884 7ebe b904 023d
000002c0: 087b a83b be22 e2be 5765 0fbf 15fa 33bf
000002d0: 25e0 e9bf 90b5 e8bd 40b2 22bf 790a 90bd
000002e0: fdca 28be 9e1a 8fbe 36c3 53be 0190 1f3d
000002f0: df8e cebd 0a30 04bf 0676 5fbc 4d3a 2ebe
00000300: 8b6c 603e 5e45 31be 6a5f 22bc d6c2 99be
00000310: 4a96 2e3e 3579 acbd 9e01 e2be f8c9 993e
00000320: 593c 24bf 8725 07be a01a 7ebe 04d6 d7be
00000330: 1f3c 043e dc6b 3b3e db1c 76be 4437 cdbe
00000340: fbd4 21bc 8dd2 a43d 83c9 83bf 3583 cbbe
00000350: 012a 9cbd a030 9a3d 53ea 08bf c84e 6e3d
00000360: 115e 1dbe 06dc f6bd 8941 b5bd b429 4cbe
00000370: df6c c3be 3284 ee3d 56ef aabe 7cdd f9be
00000380: d61a 783d d312 42bf ceca d9be 4629 01bf
00000390: 0610 27be 1e4b e7be bcaa 89be a069 75be
000003a0: c75f 0bbf b5a2 f0be 1270 d2bd 86a3 53bf
000003b0: 9112 f2be fa05 b9bd d327 be3c eb25 b3be
000003c0: db50 97be 2c93 f1be fcde 703e fccd 5c3e
000003d0: 2275 6a3e 0d1c 00be f0c7 2bbe 92e0 013e
000003e0: 977c 0f3e c83b e9bc 1f69 793b 8821 f5bd
000003f0: c482 3abf b9ff a0be de14 87bc ca1d bd3d

fc4.bias f4 [10]
0.74071777 -0.66805077 0.34279624 0.037534975 -0.47909763 -0.031852636 0.3756378 -1.0397007
0.773624 -0.29639763
00000000: ae9f 3d3f 6005 2bbf fd82 af3e 46be 193d
00000010: 494c f5be e977 02bd 9953 c03e ea14 85bf
00000020: 390c 463f 6ec1 97be
