models/best_checkpoint.pth (torch, 999455 bytes, 8 tensors)

fc1.weight f4 [256, 784]
0.023247663 -0.008878896 0.025556862 -0.029701801 0.028314766 -0.005668193 -0.013713455 0.020770764
0.03218055 0.00568192 0.01886722 0.0037244908 -0.018616237 0.026133718 0.033673912 -0.024295524
0.024946725 -0.0027665866 -0.004552098 -0.0027101708 0.009483431 -0.029563535 0.030462401 0.032617267
-0.026126347 -0.0011227056 0.03128777 0.009402391 -0.021268874 -0.03063269 -0.029866952 -0.011149328
-0.03344261 -0.025604213 0.0048639514 0.039717276 -0.011159646 0.01557347 0.024838498 0.04032958
-0.01022043 0.04916136 0.018830538 0.017703757 -0.0006512398 0.007213755 0.00044676923 -0.022972228
0.009615636 0.0030316415 -0.0021089145 0.03307067 0.02296272 -0.020359883 -0.0015002228 -0.011638489
0.030505683 0.028601494 -0.020020958 -3.43129e-06 0.0062669246 -0.011393556 0.03642528 -0.023778893
0.020650659 0.05271602 0.043986153 0.03535423 0.06352418 0.06838302 0.06782085 0.02203493
0.057094797 0.026125079 0.053606313 0.0027882606 0.01893092 -0.024193756 0.01330274 0.02496928
-0.00083144027 -0.02911721 0.03494576 -0.013012664 0.00985321 -0.0017408319 -0.024588445 0.023541663
-0.020921344 -0.031717412 0.013572962 -0.01605888 -0.016434284 0.02030348 -0.007096611 -0.009357681
0.019197008 0.036669984 0.0066485833 0.03583408 -0.007763492 -0.015032462 0.0002750132 0.031692952
0.038628493 0.006947362 -0.01608713 0.0042769606 -0.021569371 -0.025144348 -0.018193632 0.031594615
0.013703093 -0.03269089 -0.013678483 -0.010769928 -0.010616528 -0.0077255783 0.04161495 0.028424222
0.016107906 0.010294204 -0.0031239993 0.03396074 -0.0048109363 0.024076771 0.026903486 0.017216677
0.0136460075 0.0011331195 -0.00775435 0.027525628 -0.008367156 -0.026076717 -0.015022001 0.0144633865
-0.0016028978 -0.011605666 -0.0060201013 0.016034335 0.004456941 0.022991877 -0.027205385 0.020009447
-0.013698871 0.028277589 0.021672126 -0.023814078 -0.0018919212 -0.03411781 -0.0004648536 -0.0066179065
0.029565537 0.019414695 0.06367936 0.016192589 0.054325618 0.048103083 0.046139773 -0.025170336
0.008681208 -0.03937183 -0.007797976 -0.034154363 -0.042930778 -0.008452072 -0.0037130613 -0.008126484
0.010009017 0.006005548 0.014293579 -0.009925069 0.015179698 0.0022593113 0.0243793 -0.012384986
-0.0044971374 0.032156274 0.0023378215 -0.025090134 -0.02019142 0.01650608 0.039213795 0.028111048
-0.008797611 0.041592266 0.022861795 0.0066232965 0.0047377273 0.032193623 0.021623878 0.019753374
-0.01442615 -0.026188886 0.0055253473 0.0044247713 0.027203742 0.022289515 -0.025548084 -0.025701089
-0.009954483 0.027063997 -0.016233256 -0.031679686 -0.03535931 0.008506985 -0.0055993125 -0.011864505
0.029924557 -0.022741368 0.028113745 -0.0015897254 0.019257149 0.022962667 0.011748057 -0.03147537
0.0076246965 0.012711061 -0.0302979 0.026978238 0.0045055686 -0.016408166 -0.02577931 0.0059895054
0.015402779 0.030918278 -0.016511677 -0.025275543 -0.031659145 0.015134455 0.0020132314 0.024447117
-0.021218494 0.0008430255 -0.017606098 -0.016088787 0.002344742 -0.023054063 0.011960589 -0.0254246
0.011648856 -0.032405507 -0.04243083 0.025825728 -0.0041447273 0.034845814 0.011468986 0.023439882
-0.009611734 -0.0062222183 0.0036573368 -0.0073547494 0.012991926 -0.013930912 0.027601993 -0.010434508
00000000: e271 be3c ca78 11bc a05c d13c 3151 f3bc
00000010: 5ef4 e73c 40bc b9bb 66ae 60bc 7327 aa3c
00000020: c1cf 033d 662f ba3b 6e8f 9a3c 9616 743b
00000030: 1481 98bc 6116 d63c a8ed 093d 6807 c7bc
00000040: 135d cc3c 9f4f 35bb c429 95bb 1f9d 31bb
00000050: 6460 1b3c 3a2f f2bc 498c f93c af99 053d
00000060: ec06 d6bc c027 93ba 9b27 003d 7c0c 1a3c
00000070: 103c aebc 68f1 fabc 8aab f4bc acab 36bc
00000080: 1efb 08bd edbf d1bc c861 9f3b 95ae 223d
00000090: f3d6 36bc de27 7f3c 1b7a cb3c a130 253d
000000a0: 9773 27bc 6c5d 493d 8042 9a3c 7807 913c
000000b0: f7b7 2aba 5d61 ec3b 5a3c ea39 4130 bcbc
000000c0: e78a 1d3c 81ae 463b b735 0abb 1c75 073d
000000d0: 501c bc3c c5c9 a6bc 20a3 c4ba 5caf 3ebc
000000e0: 0ee7 f93c ae4d ea3c fe02 a4bc 1d45 66b6
000000f0: c65a cd3b 0aac 3abc ad32 153d f4cb c2bc
00000100: 922b a93c c1ec 573d d32a 343d 99cf 103d
00000110: f718 823d 660c 8c3d a8e5 8a3d 9982 b43c
00000120: 3cdc 693d 4304 d63c 4b92 5b3d 40bb 363b
00000130: 0415 9b3c fc31 c6bc bcf3 593c 608c cc3c
00000140: 03f5 59ba 3787 eebc 4923 0f3d 1233 55bc
00000150: 5c6f 213c a02c e4ba b56d c9bc 72da c03c
00000160: 3d63 abbc 1eea 01bd 2161 5e3c ea8d 83bc
00000170: 31a1 86bc 7c53 a63c b08a e8bb f550 19bc
00000180: 0b43 9d3c 4433 163d 5cdc d93b c2c6 123d
00000190: e464 febb b74a 76bc a62f 9039 78d0 013d
000001a0: e938 1e3d b2a6 e33b 28c9 83bc bf25 8c3b
000001b0: 40b2 b0bc 85fb cdbc d00a 95bc 5b69 013d
000001c0: f082 603c e2e6 05bd b71b 60bc 5a74 30bc
000001d0: f2f0 2dbc d926 fdbb 7074 2a3d ead9 e83c
000001e0: baf4 833c 05a9 283c 03bc 4cbb 6b1a 0b3d
000001f0: 0fa5 9dbb a63c c53c b364 dc3c fd09 8d3c
00000200: 8193 5f3c 2e85 943a 3418 febb 6d7d e13c
00000210: 6516 09bc d79e d5bc d71e 76bc d7f7 6c3c
00000220: 5318 d2ba b125 3ebc 4544 c5bb 705a 833c
00000230: 880b 923b 7659 bc3c d4dd debc daea a33c
00000240: 3b71 60bc 67a6 e73c be89 b13c be15 c3bc
00000250: 57fa f7ba 1ebf 0bbd 98b7 f3b9 06db d8bb
00000260: 6d33 f23c 910b 9f3c 536a 823d 52a6 843c
00000270: 8a84 5e3d bd07 453d 0ffd 3c3d 0532 cebc
00000280: a03b 0e3c 5b44 21bd 2a86 ffbb 72e5 0bbd
00000290: 2fd8 2fbd 8f7a 0abc d556 73bb f224 05bc
000002a0: dcfc 233c 30ca c43b 9e2f 6a3c c29c 22bc
000002b0: 45b4 783c f410 143b 19b7 c73c 65ea 4abc
000002c0: b95c 93bb 4cb6 033d 2336 193b d389 cdbc
000002d0: 7a68 a5bc c237 873c a59e 203d 2449 e63c
000002e0: db23 10bc a75c 2a3d a948 bb3c 3d08 d93b
000002f0: f03e 9b3b 76dd 033d 8f24 b13c d4d1 a13c
00000300: a95b 6cbc 138a d6bc f90d b53b acfd 903b
00000310: 62da de3c 8098 b63c 374a d1bc 178b d2bc
00000320: 2118 23bc 51b5 dd3c 9bfb 84bc 8fc2 01bd
00000330: edd4 10bd e260 0b3c 707a b7bb 5763 42bc
00000340: 5824 f53c 1b4c babc cc4e e63c 555e d0ba
00000350: 2bc1 9d3c 341c bc3c ec7a 403c 51ec 00bd
00000360: 97d8 f93b 0e42 503c 4d33 f8bc 7701 dd3c
00000370: 73a3 933b 6b6a 86bc 222f d3bc 9d43 c43b
00000380: f05b 7c3c 5448 fd3c 7f43 87bc a80e cfbc
00000390: 05ad 01bd 81f6 773c 6bf0 033b 5245 c83c
000003a0: 68d2 adbc 7cfe 5c3a aa3a 90bc a2cc 83bc
000003b0: 3eaa 193b e0db bcbc 59f6 433c 4047 d0bc
000003c0: d8da 3e3c a3bb 04bd f3cb 2dbd 7a90 d33c
000003d0: 7ed0 87bb 7cba 0e3d 6ae8 3b3c ff04 c03c
000003e0: 897a 1dbc c0e3 cbbb eeaf 6f3b 1c00 f1bb
000003f0: 16dc 543c 7b3e 64bc 931d e23c 80f5 2abc

fc1.bias f4 [256]
0.00994651 0.06133001 -0.024130601 0.038389914 0.008372046 0.018271111 0.01758262 0.028296936
0.044355255 0.002475324 -0.0058658132 0.005110206 -0.0027346993 -0.005646096 -0.023984976 -0.043147467
0.015538222 0.024569312 0.004350405 0.056245882 0.0070253117 -0.006810433 -0.03913516 0.033708777
0.01388205 -0.0048998576 0.0143699115 -0.020410372 -0.031037692 -0.0022922868 -0.0035079122 0.056750394
-0.017675677 0.054594934 -0.011318551 0.020692198 0.016845142 0.036842503 -0.013263011 -0.028333426
0.022191513 -0.00075156975 0.024759008 0.03665972 0.0063853837 0.01492045 -0.004783115 0.047227066
0.0019725226 -0.0348935 0.04914919 0.012473257 -0.0015006594 -0.009732635 0.011700123 0.013289808
0.0054231086 -0.021045107 0.024453849 -0.0072271023 0.019294204 -0.0106195 -0.024119185 0.04662072
0.014564294 0.005174618 -0.032937642 -0.03703956 -0.002750948 -0.004525102 0.044817045 -0.026950842
0.027237 -0.00041014375 0.018351154 0.020397648 -0.004323252 0.037156746 0.040683936 0.047915373
0.028976085 -0.028161384 0.023039436 -0.0016973489 0.02230356 0.012426296 0.023830181 0.036027405
0.02154725 0.007752627 0.046870545 0.005770355 0.030796105 0.01063472 0.0028780946 0.03095134
0.008518369 -0.017587777 -0.030082239 0.0131005505 -0.01479396 0.046751503 0.03425448 0.03662884
-0.021044249 -0.0046666195 0.012301889 -0.025929008 -0.014788335 -0.010688057 0.048690632 -0.011072048
0.024066385 -0.0367679 -0.0005164431 0.006202865 -0.00931085 -0.02164845 -0.0076831686 -0.014150155
0.009480889 0.041235 0.055513546 -0.023086715 -0.023136495 0.013734948 0.020365864 0.0032669287
0.031788945 0.028664073 0.031906776 0.009431169 0.04532478 -0.02686404 0.03088595 -0.029120417
0.0037748397 0.021547705 0.0022120923 0.05074074 0.022409188 -0.027808465 0.04667627 -0.03164756
-0.02450138 -0.020174196 0.024362082 -0.0039886422 -0.008001953 -0.016957182 0.03281335 -0.02325069
0.041672725 0.0031015435 0.007444393 -0.00252072 -0.024601726 0.012014943 0.011644415 -0.0073548444
0.029240102 0.04256803 0.009486518 -0.0025089653 -0.04141396 -0.0034107761 0.010573254 0.015598216
-0.02086298 0.025832424 0.035430394 0.043043964 0.024536636 0.0075140237 0.032197766 -0.011004859
0.033896234 0.051207453 -0.03574793 -0.008660315 0.02250598 0.020435205 0.022138584 0.007902364
0.023013052 0.010836293 0.037283577 -0.024449192 0.019426737 0.02560353 0.035908565 0.019682912
0.006586816 0.018488802 0.05241557 0.011925012 0.0049060234 -0.0022850272 0.045256082 -0.0038076206
0.010357109 0.016792387 0.036316093 -0.042154662 -0.02751976 0.007405367 0.049691636 0.033975303
-0.024338994 -0.0024526387 0.022412615 0.03664185 0.027495062 0.016754705 0.05103552 0.056615207
0.034316756 -0.0053530894 0.013032968 0.05379811 0.029263334 -0.00021963843 -0.025730567 0.02562948
0.00290775 0.020140061 -0.02570588 0.0075164917 -0.03507089 0.008839737 0.010083616 -0.010479985
0.013191094 -0.039041832 0.008299496 -0.0065653683 0.015940996 0.055582 0.0066662114 -0.002651849
-0.020672424 0.015088196 0.061328262 0.06639565 3.3198427e-05 0.039155733 -0.027678639 0.015887132
-0.031282283 -0.008799566 0.018619483 0.02016043 0.051454026 0.030195735 0.05445278 -0.014185212
00000000: b0f6 223c 2d35 7b3d 8aad c5bc be3e 1d3d
00000010: e82a 093c 4cad 953c 6d09 903c face e73c
00000020: dbad 353d 0c39 223b 0236 c0bb 8473 a73b
00000030: a438 33bb e302 b9bb 247c c4bc 66bb 30bd
00000040: 0794 7e3c 9545 c93c d88d 8e3b 1562 663d
00000050: 9634 e63b 0e2a dfbb 314c 20bd 3712 0a3d
00000060: 8a71 633c fc8e a0bb c76f 6b3c a733 a7bc
00000070: c242 febc 313a 16bb 00e5 65bb 1a73 683d
00000080: 95cc 90bc f09e 5f3d 7271 39bc af82 a93c
00000090: d3fe 893c 2ae8 163d 1a4d 59bc 801b e8bc
000000a0: faca b53c fe04 45ba 67d3 ca3c 8128 163d
000000b0: 7b3c d13b e774 743c adbb 9cbb 2b71 413d
000000c0: 7045 013b 7dec 0ebd a950 493d a25c 4c3c
000000d0: c6b1 c4ba a175 1fbc dfb1 3f3c 7fbd 593c
000000e0: 55b4 b13b ca66 acbc 7053 c83c 54d1 ecbb
000000f0: e10e 9e3c 69fd 2dbc 9995 c5bc 5ef5 3e3d
00000100: 149f 6e3c d88f a93b 9fe9 06bd cbb6 17bd
00000110: 4049 34bb 4f47 94bb 1492 373d 03c8 dcbc
00000120: 2120 df3c 9008 d7b9 2955 963c f818 a73c
00000130: 11aa 8dbb ac31 183d 33a4 263d e942 443d
00000140: 415f ed3c b4b2 e6bc 33bd bc3c 9479 deba
00000150: f5b5 b63c aa97 4b3c 8337 c33c 7991 133d
00000160: dc83 b03c c009 fe3b 54fb 3f3d 3f15 bd3b
00000170: 1d48 fc3c 403d 2e3c 6a9e 3c3b aa8d fd3c
00000180: a190 0b3c 3e14 90bc 076f f6bc b1a3 563c
00000190: 5e62 72bc 817e 3f3d 6d4e 0c3d 1f08 163d
000001a0: fd64 acbc 71ea 98bb dd8d 493c 1269 d4bc
000001b0: c64a 72bc f61c 2fbc d46f 473d 8967 35bc
000001c0: de26 c53c f099 16bd e961 07ba 6741 cb3b
000001d0: 898c 18bc 1758 b1bc 17c3 fbbb 0dd6 67bc
000001e0: bb55 1b3c 08e6 283d 2c62 633d 5a20 bdbc
000001f0: bf88 bdbc 8c08 613c 50d6 a63c f819 563b
00000200: 2035 023d ebd0 ea3c aeb0 023d 3185 1a3c
00000210: 7aa6 393d fa11 dcbc 8804 fd3c f18d eebc
00000220: 4d63 773b d084 b03c c0f8 103b 86d5 4f3d
00000230: 7993 b73c 94ce e3bc 9e2f 3f3d dfa0 01bd
00000240: 1eb7 c8bc 5b44 a5bc fd92 c73c 28b3 82bb
00000250: a01a 03bc cae9 8abc 4b67 063d 3b78 bebc
00000260: 05b1 2a3d 4443 4b3b 18f0 f33b aa32 25bb
00000270: 8f89 c9bc 53da 443c 37c8 3e3c e800 f1bb
00000280: f088 ef3c d15b 2e3d 576d 1b3c 746d 24bb
00000290: afa1 29bd 5487 5fbb 713b 2d3c a98f 7f3c
000002a0: d7e8 aabc 859e d33c 761f 113d de4e 303d
000002b0: 0e01 c93c 3338 f63b cee1 033d b94d 34bc
000002c0: c7d6 0a3d e8be 513d 6c6c 12bd fee3 0dbc
000002d0: 765e b83c bb67 a73c fa5b b53c eb78 013c
000002e0: de85 bc3c b58a 313c aab6 183d ac49 c8bc
000002f0: d224 9f3c 7fbe d13c dc14 133d 0f3e a13c
00000300: 38d6 d73b d475 973c b5b1 563d 2061 433c
00000310: b5c2 a03b 65c0 15bb 715e 393d 4689 79bb
00000320: ddb0 293c 3090 893c 2fc0 143d 5eaa 2cbd
00000330: 1f71 e1bc b9a8 f23b 7589 4b3d b029 0b3d
00000340: 9262 c7bc 73bc 20bb a99a b73c c415 163d
00000350: 533d e13c 2a41 893c 9f0a 513d 59e5 673d
00000360: ba8f 0c3d f868 afbb 3b88 553c 685b 5c3d
00000370: a9b9 ef3c be4e 66b9 e9c8 d2bc eaf4 d13c
00000380: f38f 3e3b c5fc a43c 2395 d2bc e74c f63b
00000390: 7ea6 0fbd 8bd4 103c c035 253c 3eb4 2bbc
000003a0: 751f 583c 54ea 1fbd 9cfa 073c 4d22 d7bb
000003b0: b196 823c f4a9 633d 3c70 da3b a5ca 2dbb
000003c0: 3759 a9bc 7b34 773c 5833 7b3d 71fa 873d
000003d0: 8a3e 0b38 c361 203d 50be e2bc bb25 823c
000003e0: da21 00bd 0e2c 10bc e387 983c 7c27 a53c
000003f0: 75c1 523d 0c5d f73c e109 5f3d 1769 68bc

fc2.weight f4 [132, 256]
0.02594895 0.0876708 -0.056604553 0.061893407 0.050198466 0.049246326 0.018670784 -0.057298027
-0.03528847 0.0075526154 -0.011630541 -0.0059647034 0.08478955 -0.03421062 -0.04628661 0.053260714
-0.079502575 -0.060709637 -0.035488464 0.021818418 -0.057031244 0.033263545 0.008903435 0.021015894
-0.018630112 -0.009134554 -0.054606702 0.018776657 0.039454762 -0.034175295 -0.07071299 -0.017777007
0.02422476 -0.031969547 0.044982694 -0.02851048 -0.019611955 0.026257308 -0.060550295 0.011795325
0.020295482 -0.03880085 0.021552514 0.035334736 0.028774017 -0.041403968 -0.021685207 -0.04413059
-0.022154832 -0.06456152 0.0135737015 -0.020342017 -0.023957673 0.044216026 0.057359703 0.0729861
0.058333445 -0.029855845 0.06108031 -0.051751908 -0.05478596 -0.047673162 -0.03138689 0.03264548
-0.047206428 0.051174916 0.045036275 -0.046456903 -0.050751932 0.06892899 0.0059815547 -0.0019801622
-0.0389979 0.055807453 0.010699455 -0.003493755 0.05115748 0.0005520035 0.055698205 0.04212531
0.06060444 0.056982484 0.040432468 -0.022196893 -0.08747544 0.02184244 -0.016286286 0.011132033
0.0036647604 0.015764521 -0.046360377 -0.0066645197 -0.010986937 0.07182225 0.0029164294 -0.0111956075
-0.0044645844 0.0066846116 0.03537018 0.070327476 -0.02669225 0.05600463 0.038635958 -0.03421906
0.01299741 -0.030386368 0.06909733 0.06952302 0.070508346 -0.035699684 0.011290982 0.0817222
0.012372714 0.004961521 -0.061136503 0.052081082 0.020345502 0.050494615 0.024580566 -0.02645733
0.048349075 -0.01371164 -0.027805557 0.020387769 -0.050979964 -0.04927676 0.041615237 -0.004996131
0.000619799 0.03245683 0.05799792 0.024665996 0.03599105 -0.03269894 0.028797861 -0.060500167
-0.07067367 -0.041691307 -0.009175153 -0.068016216 0.0016998292 0.053658072 0.046777185 0.04009062
-0.02536948 0.06059581 0.06511004 0.065148905 0.032696605 0.058786314 0.0351195 -0.0071203406
0.035536308 -0.040313434 0.0600876 0.030327793 -0.00933983 0.04475635 0.024899239 0.073504284
-0.021019688 0.035770144 0.088071726 0.007986334 0.049318004 -0.051630676 0.013263709 0.05265621
-0.026532566 -0.036268484 0.059726514 0.05459537 -0.036350112 -0.0011874172 -0.011995222 -0.014623734
-0.009919391 -0.033983476 0.06459427 -0.029764201 -0.032932866 -0.031667206 0.035700604 0.044537704
0.054870263 -0.018384345 -0.06670299 -0.023549741 0.07366166 0.07470201 0.072812684 0.02245134
0.046077665 -0.027910722 -0.022178119 -0.035617355 -0.060659602 0.0498659 0.04790698 0.0028433288
-0.06271654 0.06646107 0.028273333 -0.0046263966 0.060262714 0.062297747 -0.010216966 0.031596527
-0.048270453 0.026439989 0.0021805682 0.060010813 -0.022496838 0.074744865 -0.011347388 0.035260912
0.061958697 -0.065642804 -0.02021974 0.01494187 -0.03179337 -0.04995029 -0.045082036 0.057237145
0.045138054 -0.047111683 -0.054669484 0.035040244 -0.035884067 -0.004024933 -0.046622485 0.015469489
-0.024533283 -0.048811704 0.013831475 -0.056829043 0.07073855 0.043804333 -0.0108700935 -0.005583498
0.006791597 -0.012057398 -0.018454276 -0.0256996 -0.029488211 0.060597308 0.0455898 -0.057818245
0.018840741 -0.05036621 0.04757685 -0.020547472 0.00063787116 0.02123232 -0.001868885 0.034937825
00000000: e492 d43c c08c b33d 2dda 67bd f183 7d3d
00000010: e89c 4d3d 84b6 493d 79f3 983c 56b1 6abd
00000020: a58a 10bd ee7b f73b 068e 3ebc 8f73 c3bb
00000030: 25a6 ad3d 6f20 0cbd 0797 3dbd e827 5a3d
00000040: 3fd2 a2bd abaa 78bd 5a5c 11bd 8abc b23c
00000050: 9899 69bd 5b3f 083d b7df 113c 8629 ac3c
00000060: 2d9e 98bc 19a9 15bc 47ab 5fbd 81d1 993c
00000070: 519b 213d 65fb 0bbd f9d1 90bd 16a1 91bc
00000080: 0173 c63c 80f2 02bd c63f 383d cf8e e9bc
00000090: 40a9 a0bc 9119 d73c 9603 78bd 2e41 413c
000000a0: b642 a63c a4ed 1ebd e68e b03c 28bb 103d
000000b0: 7db7 eb3c 3597 29bd 2da5 b1bc 47c2 34bd
000000c0: 0d7e b5bc d538 84bd 3b64 5e3c 4da4 a6bc
000000d0: e242 c4bc dd1b 353d 02f2 6a3d bd79 953d
000000e0: 0def 6e3d 3f94 f4bc 592f 7a3d cff9 53bd
000000f0: 3e67 60bd ef44 43bd 8a8f 00bd 44b7 053d
00000100: 875b 41bd ca9c 513d f577 383d 9849 3ebd
00000110: 42e1 4fbd a42a 8d3d eb00 c43b 9cc5 01bb
00000120: 43bc 1fbd 5b96 643d c44c 2f3c 7bf7 64bb
00000130: 818a 513d 54b4 103a cd23 643d 978b 2c3d
00000140: 5c3c 783d 7766 693d 849c 253d 42d6 b5bc
00000150: 5326 b3bd ebee b23c d16a 85bc 2163 363c
00000160: 7a2c 703b 9924 813c 61e4 3dbd 0b62 dabb
00000170: 8e02 34bc 8b17 933d 9121 3f3b c86d 37bc
00000180: a64b 92bb 960a db3b 52e0 103d da07 903d
00000190: b5a9 dabc 1c65 653d bd40 1e3d 4929 0cbd
000001a0: 17f3 543c d5ec f8bc e782 8d3d 1662 8e3d
000001b0: ae66 903d d539 12bd d0fd 383c f85d a73d
000001c0: ecb6 4a3c 4194 a23b 456a 7abd f952 553d
000001d0: 9cab a63c 71d3 4e3d 2f5d c93c 0bbd d8bc
000001e0: ae09 463d c9a6 60bc 7bc8 e3bc 4004 a73c
000001f0: 5ed0 50bd 6ed6 49bd bd74 2a3d 96b6 a3bb
00000200: 027a 223a 74f1 043d 3a8f 6d3d 5810 ca3c
00000210: 5a6b 133d 53ef 05bd 7ee9 eb3c 06cf 77bd
00000220: 5bbd 90bd 81c4 2abd 6253 16bc 164c 8bbd
00000230: cecc de3a 91c8 5b3d 6f99 3f3d 1036 243d
00000240: a8d3 cfbc 5033 783d 6a58 853d ca6c 853d
00000250: e0ec 053d ebc9 703d 77d9 0f3d bf51 e9bb
00000260: 858e 113d b31f 25bd 6a1e 763d fe71 f83c
00000270: 1606 19bc 6f52 373d 7df9 cb3c 6a89 963d
00000280: 7b31 acbc b783 123d f35e b43d 1dd9 023c
00000290: ad01 4a3d b07a 53bd 0750 593c 0aae 573d
000002a0: d35a d9bc 438e 14bd caa3 743d 659f 5f3d
000002b0: dbe3 14bd 1ca3 9bba 9c87 44bc 6398 6fbc
000002c0: f184 22bc 4232 0bbd 004a 843d 0ed4 f3bc
000002d0: 9de4 06bd 79b5 01bd cc3a 123d 2b6d 363d
000002e0: a4bf 603d c49a 96bc 949b 88bd 63eb c0bc
000002f0: eddb 963d 5efd 983d d11e 953d dfeb b73c
00000300: efbb 3c3d 07a5 e4bc e3ae b5bc 81e3 11bd
00000310: 3476 78bd 3040 4c3d 1c3a 443d 2457 3a3b
00000320: 8871 80bd be1c 883d 7a9d e73c 0799 97bb
00000330: 09d6 763d ec2b 7f3d 1065 27bc 5c6b 013d
00000340: 3db7 45bd ad98 d83c dde7 0e3b e6cd 753d
00000350: 4a4b b8bc d613 993d 65ea 39bc bf6d 103d
00000360: 67c8 7d3d bc6f 86bd dea3 a5bc bfce 743c
00000370: c439 02bd ad98 4cbd f1a7 38bd 7f71 6a3d
00000380: aee2 383d 2ef8 40bd 1ced 5fbd 5c86 0f3d
00000390: 2cfb 12bd 96e3 83bb 38f7 3ebd bd73 7d3c
000003a0: 06fa c8bc c8ee 47bd 699d 623c 92c5 68bd
000003b0: 5fdf 903d 2c6c 333d 7a18 32bc c7f5 b6bb
000003c0: 0c8c de3b 658c 45bc 6c2d 97bc f887 d2bc
000003d0: 4391 f1bc e234 783d 5fbc 3a3d d3d2 6cbd
000003e0: e657 9a3c cd4c 4ebd f1df 423d 2c53 a8bc
000003f0: cf36 273a 67ef ad3c 60f5 f4ba f71a 0f3d

fc2.bias f4 [132]
-0.018063042 -0.04366571 0.070938386 0.0467679 0.041667745 0.07186932 0.03737066 0.06786951
-0.007515398 -0.02580945 -0.027085548 0.035265945 -0.037827644 0.07517274 0.07925859 0.058375068
-0.03755887 -0.0032417767 -0.063477576 -0.010427222 -0.05173256 -0.0059943264 0.04284935 -0.046111632
0.053638283 -0.016410505 0.068978615 0.05643667 0.0331668 -0.0017669485 0.049150247 -0.029688753
-0.013147157 0.07276523 0.024441851 0.07426841 -0.0062731085 0.025105862 -0.0020914115 -0.05028567
0.011136113 0.055497892 -0.034213293 -0.0415678 -0.035033617 -0.036342137 0.010295536 -0.014938552
0.064738266 0.07266909 -0.04456391 -0.04485638 -0.017998157 -0.029201059 -0.042258907 0.04466155
-0.029254142 -0.03264297 0.021480683 0.015985556 -0.022454115 0.037407394 0.03350796 -0.0074192667
0.005015544 0.059730668 0.06350114 0.01411306 -0.0043109106 0.046805926 0.062367816 -0.027002525
0.030960351 -0.02041516 -0.021045892 -0.05209457 0.051185884 0.073741205 0.03462484 -0.07450669
0.029004868 0.009657724 -0.0009942603 0.0028810217 0.035191324 -0.040738832 0.028756637 0.07487371
0.022142032 -0.022750746 -0.04752928 0.008876228 -0.00030207826 -0.011898598 0.08133301 0.053307816
-0.010384966 0.045845713 0.026942877 -0.0067092907 0.0102687655 -0.004162544 1.0379561e-05 0.019647595
0.03485026 -0.0026361763 0.060636517 -0.012496887 0.00805808 0.05943386 0.055551924 -0.025212104
-0.0153783085 -0.0035538455 0.056063764 0.021582618 -0.045814663 0.022334844 0.079357654 -0.030331006
0.017881896 0.019223774 0.064263836 0.040675472 0.006382298 0.018272543 -0.0043517738 0.049044795
0.030542657 -0.0068939105 0.01014936 -0.025291685
00000000: f2f8 93bc d1da 32bd 2548 913d b38f 3f3d
00000010: ccab 2a3d 3930 933d fa11 193d 2bff 8a3d
00000020: ba43 f6bb 576e d3bc 83e2 ddbc 0673 103d
00000030: 29f1 1abd 2af4 993d 5452 a23d b21a 6f3d
00000040: 54d7 19bd fd73 54bb 8800 82bd f0d6 2abc
00000050: 85e5 53bd 0e6c c4bb cd82 2f3d 8ddf 3cbd
00000060: d1b3 5b3d 536f 86bc a944 8d3d 232a 673d
00000070: e9d9 073d f498 e7ba c551 493d d435 f3bc
00000080: 2c67 57bc f005 953d 473a c83c 091a 983d
00000090: a68e cdbb cfaa cd3c 1010 09bb 59f8 4dbd
000000a0: 3e74 363c c251 633d 3d23 0cbd ff42 2abd
000000b0: 697f 0fbd 7edb 14bd 9cae 283c d4c0 74bc
000000c0: 7f95 843d 88d3 943d a688 36bd 53bb 37bd
000000d0: df70 93bc 0f37 efbc ad17 2dbd 08ef 363d
000000e0: 62a6 efbc a3b4 05bd 42f8 af3c 24f4 823c
000000f0: b1f1 b7bc 7f38 193d a53f 093d 521d f3bb
00000100: 6f59 a43b 25a8 743d e30c 823d 773a 673c
00000110: 8a42 8dbb 92b7 3f3d 6575 7f3d 6634 ddbc
00000120: 90a0 fd3c b23d a7bc 6f68 acbc 1e61 55bd
00000130: 4aa8 513d a105 973d c7d2 0d3d f796 98bd
00000140: 9e9b ed3c 6e3b 1e3c d751 82ba 86cf 3c3b
00000150: c724 103d c3dd 26bd 0a93 eb3c 6357 993d
00000160: 3563 b53c c65f babc 10ae 42bd 996d 113c
00000170: 4260 9eb9 56f2 42bc ec91 a63d 4c59 5a3d
00000180: b425 2abc b7c8 3b3d 4fb7 dc3c 9cd9 dbbb
00000190: 533e 283c f365 88bb e023 2e37 fef3 a03c
000001a0: 25bf 0e3d b3c3 2cbb ff5d 783d bebf 4cbc
000001b0: 0a06 043c eb70 733d 6a8a 633d 9d89 cebc
000001c0: 4df5 7bbc a2e7 68bb 1ea3 653d 08ce b03c
000001d0: 28a8 3bbd 90f7 b63c 4486 a23d bb78 f8bc
000001e0: 0e7d 923c 2d7b 9d3c c29c 833d 539b 263d
000001f0: 9922 d13b 4db0 953c 5399 8ebb 32e3 483d
00000200: 9834 fa3c 50e6 e1bb 8049 263c 8230 cfbc

fc3.weight f4 [100, 132]
0.05013167 -0.06337793 -0.10440194 0.027072916 0.055142052 -0.024646644 0.006750101 -0.03632066
0.010394869 0.042577926 0.07530289 0.0008557092 -0.045617428 0.033756766 -0.068983234 0.067024745
0.06725395 -0.07336346 -0.11846386 -0.041120056 0.022258932 -0.048870735 -0.062599145 -0.03324707
0.13839832 0.005318844 0.11805538 0.048580322 -0.04468136 -0.006247392 0.0675717 0.026286898
0.0595741 0.018698417 -0.080618255 0.033813003 0.05286291 0.0112835355 -0.06544921 0.023671675
0.08725606 0.08167877 -0.08456118 0.08785747 0.034152195 -0.05735047 0.024843695 0.033836838
0.057250757 0.063850634 0.0116582 0.04607492 0.03578815 -0.008449052 0.044187434 -0.018773794
0.10356577 0.008245117 -0.068400204 -0.040101815 0.018361323 -0.059483234 -0.04690874 0.025881412
0.05491834 -0.057786945 0.10526531 -0.026658665 0.03840695 -0.055850524 -0.066646256 -0.03671622
-0.010458658 -0.11430642 0.08332056 0.08019213 -0.046875037 -0.056240384 0.0007086593 -0.039992772
-0.03511089 -0.09054193 0.06682117 0.109796755 0.0944197 -0.08438312 -0.07869501 0.07083068
0.03090663 0.045565594 0.014414686 -0.0036204823 -0.056345217 0.101923116 0.08847836 0.070302665
0.04971814 0.047909472 -0.03231715 -0.063355505 0.060937814 0.034994654 -0.051641643 -0.072960064
0.028919436 -0.026386967 0.04914686 -0.08676669 -0.02422817 0.0049119354 -0.0794892 0.05406057
-0.0576663 -0.011464292 -0.025099235 0.02431807 0.056667745 0.06556437 -0.017696759 0.096274495
0.0021881114 0.03940887 -0.022638313 -0.04913381 0.09489592 0.08398297 0.011502151 0.10476416
0.09932903 0.055819232 0.015253432 0.017563986 0.037436493 0.09408301 -0.06273394 0.042731598
0.0069799908 0.07768527 0.082799114 -0.02765661 -0.05663184 0.06143086 0.03820821 -0.0485483
0.06127575 -0.054468732 0.042543218 -0.04504568 -0.06897367 0.09598479 -0.07051035 0.006099735
-0.03771967 0.10920714 -0.008851354 0.0056128274 0.038141783 -0.06843633 -0.04129678 0.08072418
0.0107014 0.08661414 0.07134288 -0.017669134 0.0132378545 -0.035107292 0.023222838 0.016135348
-0.053635113 -0.07616734 -0.07593552 0.007588078 -0.008345902 0.029855663 -0.015680969 -0.08079825
-0.030594815 -0.046169247 0.03012371 0.02028304 0.064949445 -0.046884432 0.023915283 -0.06490954
0.0008616339 0.076591015 0.051068787 -0.029423479 -0.051108178 0.07065431 0.010436234 0.07923864
0.084409624 0.00030112127 -0.02453364 0.10075601 0.027294416 0.02175446 -0.042482205 0.0072143353
-0.037741765 -0.076653056 0.008389784 0.077553496 0.016051361 0.02959152 -0.021070024 -0.06287565
-0.0024040707 0.022796603 0.06364133 -0.021775892 -0.072369084 0.02207956 -0.04006789 0.07681052
-0.059366833 -0.013613384 -0.082566366 0.007011706 0.02294069 -0.07032574 -0.025540907 0.089114465
-0.04070222 0.01512249 0.0032787544 -0.008870503 -0.06318215 -0.02868151 -0.027029904 -0.092967294
-0.08141104 -0.03861013 -0.1111972 -0.014409618 0.032865692 0.050449524 0.100993335 -0.03823363
0.061591502 0.025703656 0.068135194 -0.002698624 -0.07063377 0.054756686 0.07156629 0.0336147
-0.039177876 -0.009700323 -0.031263314 0.021787483 -0.031119226 0.112068646 0.0028017426 -0.06489503
00000000: de56 4d3d 4acc 81bd afd0 d5bd 05c8 dd3c
00000010: a2dc 613d c2e7 c9bc f42f dd3b f9c4 14bd
00000020: 3e4f 2a3c 3166 2e3d 6738 9a3d ac51 603a
00000030: 57d9 3abd 8944 0a3d 1547 8dbd 4544 893d
00000040: 70bc 893d 953f 96bd 2e9d f2bd 816d 28bd
00000050: 5d58 b63c ae2c 48bd fb33 80bd 142e 08bd
00000060: 4ab8 0d3e b349 ae3b 05c7 f13d 29fc 463d
00000070: cd03 37bd ecb6 ccbb 0863 8a3d 9f57 d73c
00000080: f903 743d 6c2d 993c 2f1b a5bd 817f 0a3d
00000090: c786 583d 94de 383c 3c0a 86bd 1aeb c13c
000000a0: 4eb3 b23d 3347 a73d 692e adbd 9eee b33d
000000b0: 2ce3 0b3d 54e8 6abd 0185 cb3c 7f98 0a3d
000000c0: c57f 6a3d 1fc4 823d 0902 3f3c 0eb9 3c3d
000000d0: 9896 123d e56d 0abc e2fd 343d 80cb 99bc
000000e0: 4a1a d43d 8716 073c 6815 8cbd cd41 24bd
000000f0: 7c6a 963c b1a4 73bd 6123 40bd 4105 d43c
00000100: 0ef2 603d 01b2 6cbd 5795 d73d 4663 dabc
00000110: 9b50 1d3d 85c3 64bd d57d 88bd bf63 16bd
00000120: cb5a 2bbc 7c19 eabd f8a3 aa3d c53b a43d
00000130: 0a00 40bd 515c 66bd 52c5 393a 76cf 23bd
00000140: 70d0 0fbd 0c6e b9bd 8ad9 883d 1fdd e03d
00000150: 1e5f c13d 0fd1 acbd d92a a1bd ad0f 913d
00000160: e72f fd3c fda2 3a3d 932b 6c3c 9d45 6dbb
00000170: 3eca 66bd 11bd d03d 2434 b53d d8fa 8f3d
00000180: 40a5 4b3d b93c 443d fd5e 04bd 88c0 81bd
00000190: ee99 793d 8e56 0f3d 3086 53bd 166c 95bd
000001a0: 74e8 ec3c 7b29 d8bc 384e 493d bcb2 b1bd
000001b0: 287a c6bc 4df4 a03b 3ccb a2bd 9e6e 5d3d
000001c0: 8033 6cbd bad4 3bbc e99c cdbc b036 c73c
000001d0: 701c 683d 9d46 863d cbf8 90bc 902b c53d
000001e0: 6b66 0f3b 326b 213d fc73 b9bc 8940 49bd
000001f0: cb58 c23d 43ff ab3d 8573 3c3c 988e d63d
00000200: 056d cb3d b5a2 643d 88e9 793c 59e2 8f3c
00000210: 0257 193d 98ae c03d a77a 80bd 5407 2f3d
00000220: 68b8 e43b 7419 9f3d 9592 a93d 1d90 e2bc
00000230: caf6 67bd ed9e 7b3d 3680 1c3d 95da 46bd
00000240: 48fc 7a3d 9b1a 5fbd cc41 2e3d d281 38bd
00000250: 1142 8dbd ac93 c43d bb67 90bd 49e0 c73b
00000260: f17f 1abd fea7 df3d 4505 11bc cfeb b73b
00000270: 8f3a 1c3d 5928 8cbd d026 29bd b852 a53d
00000280: ed54 2f3c c162 b13d 371c 923d dcbe 90bc
00000290: 96e3 583c aacc 0fbd d23d be3c 472e 843c
000002a0: 7eb0 5bbd 9ffd 9bbd 1584 9bbd 69a5 f83b
000002b0: 40bd 08bc dd93 f43c 6075 80bc 8e79 a5bd
000002c0: faa1 fabc f71b 3dbd 00c6 f63c 9e28 a63c
000002d0: 3704 853d e409 40bd fce9 c33c 4bef 84bd
000002e0: 46df 613a c0db 9c3d 812d 513d 8209 f1bc
000002f0: cf56 51bd 35b3 903d bdfc 2a3c de47 a23d
00000300: f4de ac3d d0df 9d39 c6fa c8bc 2b59 ce3d
00000310: 8a98 df3c 6936 b23c d201 2ebd 3b66 ec3b
00000320: 1c97 1abd 47fc 9cbd 4e75 093c 5ed4 9e3d
00000330: 257e 833c ea69 f23c 0b9b acbc f3c4 80bd
00000340: 9d8d 1dbb f1bf ba3c 6356 823d 5b63 b2bc
00000350: 3e36 94bd 32e0 b43c 3a1e 24bd d54e 9d3d
00000360: a32a 73bd ac0a 5fbc 8e18 a9bd 74c2 e53b
00000370: 1dee bb3c f106 90bd 2a3b d1bc a581 b63d
00000380: 5fb7 26bd 52c4 773c 5fe0 563b 9655 11bc
00000390: a565 81bd 7cf5 eabc d16d ddbc a365 bebd
000003a0: d5ba a6bd a825 1ebd 5cbb e3bd 5216 6cbc
000003b0: 2d9e 063d 29a4 4e3d 98d5 ce3d de9a 1cbd
000003c0: 5f47 7c3d 7990 d23c 778a 8b3d 66db 30bb
000003d0: 70a8 90bd 8c48 603d 5991 923d 91af 093d
000003e0: fb78 20bd 1bee 1ebc f60d 00bd aa7b b23c
000003f0: bfed febc 3f84 e53d 719d 373b afe7 84bd

fc3.bias f4 [100]
0.08712013 0.037849 -0.047265094 0.04628258 -0.015773201 0.030792208 0.010229736 -0.054006293
0.058413375 -0.058591407 -0.03200356 0.03041905 -0.048776627 -0.07657549 0.045484398 0.025013538
-0.032952193 0.06340751 -0.054852325 0.09026824 -0.049601216 0.076414 0.06585067 0.040255927
-0.019886585 0.0007051307 0.071335144 -0.048709195 0.04541263 -0.03565208 -0.0625042 0.081417106
0.0871323 0.07668337 0.06924428 -0.005486888 0.10350487 -0.08505255 -0.023047302 0.00845477
0.09396419 -0.04863395 0.067491844 0.025157731 -0.025699621 0.049037952 -0.0242074 -0.05180278
-0.0074915593 -0.048783198 -0.014430644 -0.03957316 0.047434565 -0.0039621824 -0.0128601985 0.01014365
0.08889211 -0.020703534 -0.078927934 -0.0080354875 -0.0064286035 0.08900037 0.048614006 -0.054834746
0.020166611 0.022323115 0.06783181 -0.05355119 -0.042621814 0.02215251 0.018614676 -0.0019238025
0.08713753 0.09412696 0.10120601 -0.08570884 0.03935415 -0.06098861 0.07504179 0.010195368
0.03945257 0.012780679 0.05333443 0.042662945 -0.043061428 0.000642652 0.019650929 -0.05425423
0.011179685 0.06992396 0.09627811 -0.04194005 -0.0055015003 -0.037784908 -0.07280647 0.034557845
-0.022757884 -0.06599293 0.0449979 0.04202372
00000000: 0a6c b23d 8e07 1b3d 0b99 41bd cd92 3d3d
00000010: cd36 81bc f13f fc3c 9f9a 273c b435 5dbd
00000020: dd42 6f3d 8bfd 6fbd 2a16 03bd 5f31 f93c
00000030: 00ca 47bd 9cd3 9cbd d94d 3a3d 31e9 cc3c
00000040: e1f8 06bd ccdb 813d d5ac 60bd 8ede b83d
00000050: a52a 4bbd f17e 9c3d b7dc 863d 66e3 243d
00000060: 31e9 a2bc 85d8 383a 2918 923d 4b83 47bd
00000070: 9802 3a3d ea07 12bd 3402 80bd 03be a63d
00000080: 6b72 b23d 2c0c 9d3d f2cf 8d3d 5acb b3bb
00000090: 5cfa d33d 0830 aebd b2cd bcbc e085 0a3c
000000a0: 4c70 c03d 6534 47bd 2a39 8a3d 9617 ce3c
000000b0: 0388 d2bc 05dc 483d 994e c6bc 272f 54bd
000000c0: c17b f5bb e4d0 47bd 826e 6cbc 7717 22bd
000000d0: bf4a 423d 32d5 81bb 95b3 52bc 8d31 263c
000000e0: 110d b63d 759a a9bc f8a4 a1bd 47a7 03bc
000000f0: 09a7 d2bb d345 b63d 7b1f 473d 669a 60bd
00000100: 7334 a53c f7de b63c 67eb 8a3d 7e58 5bbd
00000110: 3694 2ebd 2e79 b53c ce7d 983c 1a28 fcba
00000120: 2975 b23d a3c5 c03d 1945 cf3d 1e88 afbd
00000130: d131 213d 31cf 79bd 83af 993d 790a 273c
00000140: 0599 213d 0e66 513c 3475 5a3d 57bf 2e3d
00000150: 2e61 30bd a577 283a fcfa a03c af39 5ebd
00000160: ff2a 373c 4b34 8f3d 752d c53d 54c9 2bbd
00000170: ee45 b4bb 59c4 1abd 8f1b 95bd 878c 0d3d
00000180: be6e babc 4d27 87bd b84f 383d 1021 2c3d

fc4.weight f4 [10, 100]
0.062482733 0.0946152 -0.08187644 -0.13546854 0.0074202586 0.10274726 -0.113213755 0.050546918
0.09341251 -0.053098943 0.00796086 -0.039673556 -0.12744601 -0.11360993 0.011158011 0.0007528981
0.008524848 0.019462982 0.00042787998 -0.0139406165 0.054692503 -0.07661832 0.04959433 0.046099745
-0.023548143 -0.05221911 -0.15496185 -0.102308005 0.092676215 -0.017617356 0.028592484 -0.075461514
-0.1469796 0.04986046 0.081772394 -0.10828831 -0.0835574 -0.09909831 0.006825146 -0.08367888
0.107518725 -0.08108347 -0.11880043 0.09598724 -0.087780125 -0.10981258 -0.039454393 0.08846395
0.08324516 0.087312415 -0.12754913 0.015894232 0.014547463 -0.10204297 0.035377827 0.06473631
-0.036583323 0.06350015 -0.07820148 -0.12949303 -0.11790938 -0.16222753 0.04492632 -0.094825275
-0.0028886006 -0.009813751 -0.06784368 -0.114500575 -0.046171084 -0.11308416 -0.05602623 -0.11051667
-0.059429925 0.117989324 0.061925624 -0.070584156 -0.065049596 0.0026612266 0.10200686 -0.11767902
0.039374523 -0.120637685 0.11241632 0.08184173 -0.11030666 0.07096599 -0.13089953 -0.1297559
-0.12432984 0.05449222 -0.10526489 0.114687525 0.061594997 -0.045873195 0.02811383 0.034971457
-0.055466227 -0.09451061 0.08003418 -0.13611601 0.10493222 0.11608956 -0.13544014 0.0062363106
-0.15685813 -0.010980738 -0.04328405 -0.07760081 -0.11656771 0.0350282 -0.11755237 0.0051526017
0.0361242 -0.098055944 -0.06618476 -0.05499991 0.02105771 -0.07918663 -0.16066898 -0.037979804
0.06280644 0.12727161 -0.16111852 -0.08839242 -0.11862726 -0.022184158 0.10169525 -0.04702011
0.116171695 -0.012890582 -0.038668465 0.15769137 0.120622374 -0.14466146 -0.07152663 -0.13618752
0.021346468 -0.018933518 0.09490566 -0.07360417 0.06810947 -0.05395257 0.03783517 0.092264
0.03701943 0.12291235 -0.098419935 -0.100951284 -0.1644459 0.106601745 0.12880902 -0.019853177
0.11425671 0.003213394 0.056385268 0.099271424 -0.07495719 -0.1574675 -0.058295734 -0.054808382
-0.014724288 0.07052456 0.002131105 -0.038922235 0.06696059 -0.1457777 -0.062850066 0.037151877
0.0044375504 0.049897585 0.038823795 -0.13981569 0.03770485 -0.15539685 0.12571003 -0.01934414
0.0026501208 -0.009703629 0.016524728 0.08774186 0.014498414 0.03138317 0.10795738 0.028991004
0.06166348 0.025647776 -0.117392026 -0.013900345 -0.055983145 -0.06517463 -0.034179624 0.015095641
-0.064510025 -0.1357334 -0.02455255 0.0075698555 -0.013605853 0.009859474 -0.07804019 -0.03719751
-0.09880537 0.031206563 0.02408378 0.01322361 0.043252647 -0.048228424 -0.104953796 -0.019784063
0.06122505 -0.007403088 0.07112286 0.048618224 -0.12131667 -0.08663678 0.109985046 -0.0914752
0.061083265 0.10175568 -0.054236047 0.058235504 -0.03500111 -0.06770111 -0.12983447 -0.02663571
-0.024447134 0.031261537 0.04808363 0.09549588 0.056152534 -0.02802241 -0.06547447 0.08746159
0.014514373 0.046234176 0.08081349 -0.0549687 0.04956906 -0.09093472 0.03831055 0.09181368
0.016529366 0.019494947 -0.033933114 -0.055602588 -0.006124183 -0.091887645 -0.043409057 -0.10009128
0.074905805 0.0055090445 -0.008069126 -0.046491664 0.074863024 -0.09001272 -0.102410056 -0.020869652
00000000: e5ed 7f3d 9dc5 c13d d6ae a7bd 44b8 0abe
00000010: a425 f33b 286d d23d 9ddc e7bd 490a 4f3d
00000020: 0f4f bf3d 477e 59bd 446e 023c bd80 22bd
00000030: 3581 02be 53ac e8bd 17d0 363c 235e 453a
00000040: ceab 0b3c d570 9f3c 1455 e039 2f67 64bc
00000050: 3f05 603d 11ea 9cbd 6d23 4b3d 16d3 3c3d
00000060: 09e8 c0bc b5e3 55bd 52ae 1ebe dc86 d1bd
00000070: 07cd bd3d 4652 90bc c93a ea3c 918b 9abd
00000080: d281 16be 7b3a 4c3d 4978 a73d 43c6 ddbd
00000090: 2420 abbd 0ef4 cabd 79a5 df3b d55f abbd
000000a0: c732 dc3d 170f a6bd a44d f3bd f594 c43d
000000b0: 11c6 b3bd 6be5 e0bd ee9a 21bd 962c b53d
000000c0: 707c aa3d dad0 b23d 3d9c 02be 9f34 823c
000000d0: 7b58 6e3c e8fb d0bd 57e8 103d 7894 843d
000000e0: 65d8 15bd 5e0c 823d 1928 a0bd d299 04be
000000f0: 797a f1bd f91e 26be a904 383d c133 c2bd
00000100: ad4e 3dbb dbc9 20bc a1f1 8abd 477f eabd
00000110: e41d 3dbd ab98 e7bd c37b 65bd 9056 e2bd
00000120: cb6c 73bd 63a4 f13d b9a5 7d3d 6d8e 90bd
00000130: b938 85bd f967 2e3b f9e8 d03d b301 f1bd
00000140: 2e47 213d e410 f7bd 873a e63d a39c a73d
00000150: 75e8 e1bd 9e56 913d 870a 06be bbde 04be
00000160: a5a0 febd 3c33 5f3d 1e95 d7bd 4be1 ea3d
00000170: 094b 7c3d 88e5 3bbd fa4e e63c 3b3e 0f3d
00000180: 8e30 63bd c78e c1bd f6e8 a33d ff61 0bbe
00000190: b4e6 d63d 5dc0 ed3d d2b0 0abe f759 cc3b
000001a0: 6b9f 20be 8ee8 33bc 9e4a 31bd 2ced 9ebd
000001b0: 0dbb eebd bb79 0f3d 4cbf f0bd 28d7 a83b
000001c0: f8f6 133d 8ed1 c8bd e08b 87bd 9647 61bd
000001d0: 3881 ac3c 9a2c a2bd 6986 24be b690 1bbd
000001e0: aaa0 803d 7d53 023e 41fc 24be 1607 b5bd
000001f0: d9f2 f2bd 8dbb b5bc 9945 d03d 2998 40bd
00000200: 6deb ed3d 0533 53bc d362 1ebd d979 213e
00000210: dd08 f73d 2222 14be 8e7c 92bd be74 0bbe
00000220: cade ae3c 771a 9bbc e65d c23d c8bd 96bd
00000230: fa7c 8b3d 5ffd 5cbd 0df9 1a3d e8f4 bc3d
00000240: b0a1 173d 78b9 fb3d 6490 c9bd 8cbf cebd
00000250: 8264 28be 0452 da3d 83e6 033e 21a3 a2bc
00000260: 6cff e93d ce97 523b 3df4 663d d14e cb3d
00000270: 2883 99bd 293f 21be 82c7 6ebd c17e 60bd
00000280: 243e 71bc 2e6f 903d 02aa 0b3b ec6c 1fbd
00000290: a222 893d c046 15be 89b7 80bd 912c 183d
000002a0: df68 913b 6961 4c3d b305 1f3d d82b 0fbe
000002b0: 6770 1a3d 5a20 1fbe 21ba 003e 9a77 9ebc
000002c0: a6ad 2d3b f8fb 1ebc de5e 873c 01b2 b33d
000002d0: c18a 6d3c a48b 003d c218 dd3d 8b7e ed3c
000002e0: d892 7c3d 491b d23c 3b6b f0bd 46be 63bc
000002f0: 954e 65bd 477a 85bd efff 0bbd b553 773c
00000300: d51d 84bd b2fd 0abe 6e22 c9bc 8d0c f83b
00000310: 15eb 5ebc a289 213c 89d3 9fbd 6b5c 18bd
00000320: 785a cabd e8a4 ff3c 594b c53c d7a7 583c
00000330: b029 313d 2b8b 45bd 04f2 d6bd 3012 a2bc
00000340: 1ec7 7a3d 9a95 f2bb dda8 913d e723 473d
00000350: e074 f8bd a06e b1bd d73f e13d 5a57 bbbd
00000360: 7232 7a3d 4865 d03d 9e26 5ebd 5a88 6e3d
00000370: 535d 0fbd e1a6 8abd 54f3 04be 2233 dabc
00000380: 5b45 c8bc 190c 003d 57f3 443d 5893 c33d
00000390: 3300 663d 418f e5bc 7b17 86bd 101f b33d
000003a0: b1cd 6d3c 0c60 3d3d 8b81 a53d dc26 61bd
000003b0: ed08 4b3d fc3b babd 86eb 1c3d d008 bc3d
000003c0: 9868 873c deb3 9f3c 73fd 0abd 8abf 63bd
000003d0: 5fad c8bb 972f bcbd b2cd 31bd a8fc ccbd
000003e0: 3768 993d 3785 b43b 5e34 04bc 0b6e 3ebd
000003f0: c951 993d 9758 b8bd 5dbc d1bd d5f6 aabc

fc4.bias f4 [10]
-0.10521552 -0.07342079 0.048193723 0.043990612 -0.02406966 -0.0036219945 -0.08928342 0.0015626667
0.05289907 -0.08792419
00000000: 3c7b d7bd a45d 96bd c866 453d 802f 343d
00000010: bc2d c5bc fc5e 6dbb 3ada b6bd 65d2 cc3a
00000020: b2ac 583d 9911 b4bd
