models/best_checkpoint.pth (torch, 999455 bytes, 8 tensors)

fc1.weight f4 [256, 784]
0	0xbcf6b2d3	-0.030114567
1	0x3c549b34	0.012976456
2	0xbc43cf66	-0.011951303
3	0x3d00dc21	0.03145993
4	0x3c93e8ba	0.018055309
5	0xbc871d1e	-0.016493376
6	0x3cb1bbea	0.02169605
7	0x3cc1499c	0.02359467
8	0x3bfe7ce3	0.0077663525
9	0x3c9c59bd	0.01908576
10	0x3b84fccc	0.004058456
11	0x3c83ee0b	0.016104719
12	0xbcc001fc	-0.023438446
13	0x3bd309d6	0.0064403815
14	0xbd018109	-0.0316172
15	0x3cbbf3c0	0.022943377
16	0xbc1c7785	-0.00954998
17	0xbcad8963	-0.021183675
18	0x3a8cbddb	0.0010737734
19	0x3bdedf70	0.006801538
20	0xbca30e5e	-0.019904312
21	0xbb4e2d80	-0.0031460226
22	0xbc8b1ef6	-0.016982537
23	0xbc9e25c7	-0.019305123
24	0xbc82e073	-0.015976166
25	0x3c88805a	0.016662765
26	0xbc46e2ae	-0.012139006
27	0x3c0a3e80	0.008437753
28	0xbd0772f5	-0.033068616
29	0x3d019849	0.03163937
30	0x3d0bc9a3	0.034127843
31	0xbca3392a	-0.019924719
32	0xbd115884	-0.035484806
33	0xbc198406	-0.009369856
34	0xbaa0c7d6	-0.0012266587
35	0xbc3a8e93	-0.011386531
36	0xbca50d04	-0.020147808
37	0x3cc1f5ba	0.023676742
38	0x3c59b91c	0.013288762
39	0xbc62cb7e	-0.013842462
40	0xbcb044e7	-0.02151723
41	0x3b505413	0.0031788393
42	0x3be9a0b0	0.007129751
43	0x3cb885f8	0.022524819
44	0x3ca76533	0.020433998
45	0xbc7cbff6	-0.015426626
46	0x3d2b4ea1	0.041823033
47	0x3cea18cd	0.028576279
48	0xbc31bcf6	-0.010848274
49	0xbc390b53	-0.011294204
50	0xbbc43462	-0.00598769
51	0x3c7d86fc	0.015474077
52	0xbd0f8cf6	-0.03504654
53	0x3b96dd50	0.004604019
54	0xbcff5ae5	-0.031171272
55	0x3ceb5c06	0.028730404
56	0xbc12d546	-0.008961981
57	0xbcff079a	-0.031131554
58	0xbb0d3390	-0.0021545626
59	0x3b5f30b4	0.003405613
60	0x3bad26b8	0.0052841567
61	0x3d050860	0.03247869
62	0x3d21dc95	0.039517004
63	0xbc8e53b2	-0.017373893
64	0x3c006826	0.007837331
65	0x3bf8dbbb	0.0075945533
66	0x3a384f30	0.0007030843
67	0xbc4d615a	-0.012535417
68	0x3d00f7fb	0.031486493
69	0x3cd5dae4	0.026105352
70	0x3ccc7aa9	0.024960833
71	0xbaf7ad08	-0.0018896172
72	0x3cfbabc8	0.03072156
73	0xba1100c8	-0.00055314275
74	0x3c0c33fc	0.008557316
75	0x3d1faba7	0.03898206
76	0x3c9529b8	0.01820837
77	0x3c66d3d4	0.01408859
78	0x3c233695	0.009961744
79	0x3d1c3861	0.038139705
80	0x3b8a7a97	0.0042260396
81	0x3c87ae72	0.016562674
82	0x3c6ffc88	0.0146476105
83	0xba20c640	-0.0006133057
84	0x3cbf969a	0.023387242
85	0x3ceed536	0.029154401
86	0xbb97b064	-0.0046291817
87	0x3c9355fa	0.017985333
88	0x3cfbcb96	0.030736726
89	0x3d0740f1	0.033020917
90	0xbcffaf1c	-0.031211428
91	0x3cc7fe6f	0.024413316
92	0x3c35bf23	0.011092934
93	0xbc903c23	-0.0176068
94	0xbcd04b6c	-0.025426589
95	0x3d19d1e8	0.037553698
96	0x3ca8a198	0.020584866
97	0x3c977309	0.01848747
98	0xbc1c4f64	-0.009540413
99	0x3d157005	0.036483783
100	0x3d2ae685	0.041723747
101	0x3d13b489	0.036060844
102	0x3ab28a15	0.0013621474
103	0x3d2ec123	0.04266466
104	0xbc3c8908	-0.01150728
105	0xbb9067b1	-0.004406892
106	0x3d19d6b5	0.037558276
107	0xbc381dd2	-0.0112375785
108	0x3d2bbfd3	0.041930985
109	0x3c76d2ba	0.01506489
110	0xbc9acca6	-0.018896412
111	0x3bc8bec0	0.006126255
112	0x3d10e229	0.035371933
113	0xbcbd5d1c	-0.023115687
114	0x3ce2d811	0.02769092
115	0xbcdaeb88	-0.026723638
116	0x3c83f132	0.016106222
117	0xbc9827ae	-0.018573608
118	0x3be81bd0	0.0070833936
119	0xbc649d52	-0.013953524
120	0xbd0eb81b	-0.034843545
121	0xbd1e0136	-0.038575374
122	0x3bf4a9e0	0.0074665397
123	0x3c19bb47	0.009383029
124	0xbbf356e9	-0.007426132
125	0x3bfc7eb6	0.007705535
126	0xbd260920	-0.040536046
127	0xbb61b9a3	-0.0034442923
128	0x3c966e00	0.018362999
129	0x3d3632c2	0.044482
130	0x3c383bfd	0.011244771
131	0x3c2d10dc	0.010563102
132	0x3cf932f7	0.03041981
133	0x3d5dedef	0.05418199
134	0xbc3857f8	-0.011251442
135	0x3d37dd55	0.044888813
136	0x3cc8aa11	0.024495156
137	0x3c4a0a82	0.012331607
138	0x3d065f88	0.03280595
139	0xbc287d38	-0.010283761
140	0x3cea78b2	0.028622005
141	0x3c504078	0.012710683
142	0xbc35390a	-0.011060962
143	0xbc0e2223	-0.008675131
144	0xbc039509	-0.008031138
145	0x3cc17f77	0.02362035
146	0xbcbe9b2d	-0.023267353
147	0xbd51fe71	-0.051268045
148	0xbd0ec8d3	-0.03485949
149	0xbc6038ab	-0.013685386
150	0xbbb516d0	-0.005526401
151	0xbba48764	-0.0050210226
152	0xbb2a2bf8	-0.0025966149
153	0xbb414275	-0.0029489074
154	0x3d12b734	0.035819247
155	0xb9c074ce	-0.0003670812
156	0x3b354a18	0.0027662572
157	0x3d1b3e8f	0.037901457
158	0xbc39e1d4	-0.0113453455
159	0x3b8b218d	0.004245943
160	0xbc971442	-0.018442277
161	0x3ce23714	0.027614154
162	0x3d416bc9	0.047221933
163	0xbb067da5	-0.0020521667
164	0x3ccfd4fe	0.025370117
165	0x3d2344b4	0.039860442
166	0x3cdbcf02	0.026832107
167	0xbc89827b	-0.01678585
168	0xbcb69780	-0.022289038
169	0x3cf92fd7	0.03041832
170	0x3c02efd5	0.007991751
171	0x3cfa6017	0.030563397
172	0x3ca38c75	0.019964436
173	0xbd206e57	-0.03916773
174	0xbd544060	-0.051819205
175	0x3c66bbe7	0.014082885
176	0xbb0d9060	-0.0021600947
177	0xbca29743	-0.019847518
178	0xbb1b244d	-0.002367276
179	0x3bb61a74	0.0055573527
180	0x3cc31cfe	0.023817535
181	0xbd256b1c	-0.04038535
182	0xbcfc1ee3	-0.030776447
183	0xbad1b177	-0.0015998323
184	0xbcc1be3f	-0.023650287
185	0xbcaec8e2	-0.021336023
186	0x3c008303	0.007843736
187	0xbc8739b5	-0.016507009
188	0x3d1dbaa8	0.038508087
189	0x3cfd7eb5	0.030944208
190	0x3c9f134d	0.019418383
191	0x3b80f3fa	0.0039353343
192	0x3a62f609	0.0008657878
193	0xbc76fa53	-0.01507433
194	0x3cdbd9dd	0.026837284
195	0x3d035de6	0.03207197
196	0xbc725292	-0.014790194
197	0x3b59cf81	0.0033235254
198	0xbc22ffbe	-0.009948669
199	0xbb95871d	-0.004563226
200	0xbd3ea354	-0.04654248
201	0xbd0b4223	-0.03399862
202	0xbcbf71a4	-0.023369618
203	0x3c9930e6	0.018700074
204	0x3ba5665f	0.005047604
205	0x3cdbeca2	0.026846234
206	0xbbc9286f	-0.0061388533
207	0x3c7375a9	0.014859595
208	0x3c74c776	0.014940133
209	0x3c95b484	0.018274553
210	0x3c95f959	0.018307375
211	0xbccd6a35	-0.025075058
212	0xbc433e55	-0.011916717
213	0xbb2a7d01	-0.002601445
214	0x3d097983	0.03356315
215	0x3c13b4b2	0.009015249
216	0xbccc970e	-0.024974372
217	0xbcd8425d	-0.026398832
218	0xbc5e34e8	-0.0135624185
219	0x3d3c7ae8	0.04601565
220	0x3d51b9ad	0.051202465
221	0xbc303bfa	-0.010756487
222	0xbbf5e54d	-0.0075041414
223	0xbbd87f47	-0.0066069695
224	0xbc307ce6	-0.010771966
225	0xbcd661d1	-0.02616969
226	0x3c65ca3e	0.014025269
227	0x3cc84857	0.024448557
228	0xbd2400bc	-0.040039763
229	0xbd55b819	-0.052177522
230	0xbcaac68c	-0.020846628
231	0xbd0f6419	-0.03500757
232	0xbcbf227a	-0.02333187
233	0xbcb006d3	-0.021487629
234	0x3b5cf202	0.0033713584
235	0x3c709204	0.01468325
236	0xbcf6ce47	-0.030127658
237	0x3cb06752	0.021533642
238	0xbd22da91	-0.039759222
239	0xbb4aded2	-0.0030955565
240	0xbce8207b	-0.0283358
241	0xbd264622	-0.040594228
242	0xbd2e7c5b	-0.042599063
243	0x3ce67009	0.028129594
244	0x3c801dc6	0.015639197
245	0x3c0cb822	0.008588823
246	0x3c963b84	0.018338926
247	0x3d48d4c1	0.049031023
248	0xbb8b5e11	-0.004253157
249	0x3ab4dc25	0.0013798518
250	0x3c1a2513	0.009408253
251	0x3cae4426	0.02127273
252	0x3cedb3de	0.029016431
253	0x3bc25327	0.0059303227
254	0x3acf2443	0.0015803654
255	0xbcf67e3b	-0.030089488

fc1.bias f4 [256]
0	0x3d0d55c3	0.034505617
1	0x3d1c55b2	0.038167663
2	0x3ce4c3a6	0.027925324
3	0x3d3071ce	0.043077283
4	0x3b501c9c	0.0031755334
5	0x3c042c64	0.008067224
6	0x3d27e43e	0.040989153
7	0x3d0198f3	0.031640004
8	0x3be8347b	0.0070863343
9	0xbc686fc9	-0.014186808
10	0x3d66b6a7	0.056326535
11	0x3d016934	0.03159447
12	0x3d39fd98	0.04540786
13	0x3c45f4c9	0.012082287
14	0xbb975dc1	-0.0046193306
15	0x3ba8370b	0.0051335148
16	0x3c5a665f	0.013330071
17	0x3c97e4af	0.018541662
18	0xbc97a671	-0.018511983
19	0x3d2fe1a7	0.04293981
20	0x3bd13796	0.0063848
21	0x38d6f51d	0.00010249971
22	0x3cc4c755	0.02402083
23	0x3b0accae	0.0021179128
24	0x3b0e9ecb	0.0021762128
25	0xbcdf3874	-0.027248599
26	0xbd187907	-0.037224796
27	0x3bf3b55d	0.0074373917
28	0x3d4f9810	0.050682127
29	0xbb2b7aa7	-0.0026165636
30	0x3c146c05	0.009058957
31	0xbccb4ed7	-0.024817867
32	0x3cbd1363	0.023080533
33	0x3d0e4e6f	0.03474277
34	0xbad87e0b	-0.0016517056
35	0x3c8f94a9	0.017526941
36	0x3d2903af	0.04126328
37	0xbc20e84d	-0.00982101
38	0x3bb57bd4	0.005538443
39	0x3d6ee553	0.05832417
40	0x3cbeee53	0.023307001
41	0x3c9e2c03	0.019308096
42	0xbc9eaf65	-0.019370744
43	0x3b927ece	0.0044706827
44	0x3c0b7158	0.00851091
45	0xbd2a1044	-0.04151942
46	0xbc2edc3a	-0.010672623
47	0x3c6b1ce2	0.014350148
48	0x3cdbbe01	0.026824
49	0xbb935eb8	-0.0044973753
50	0xbbf936cc	-0.0076054092
51	0x3cc155b0	0.02360043
52	0xbc9c326f	-0.019067017
53	0x3c5a7a83	0.013334873
54	0xbc93d898	-0.018047616
55	0x3d0cc072	0.034363218
56	0x3c94895e	0.018131908
57	0xbc0f171d	-0.008733538
58	0x3c30b129	0.010784426
59	0xbcd630bc	-0.026146285
60	0xbbbbf141	-0.005735547
61	0xbc5f5e36	-0.0136333015
62	0xb91a5615	-0.00014718653
63	0xba6521ac	-0.0008740674
64	0x3cb866e9	0.022510009
65	0x3cb22972	0.021748278
66	0xbc506908	-0.012720354
67	0x3d0aeaa9	0.033915196
68	0x3cc59b5b	0.02412193
69	0x3cddca80	0.027074099
70	0x3caadd5b	0.020857504
71	0x3d09d184	0.033647075
72	0xbcf393f3	-0.029733634
73	0xbc54dbbe	-0.012991844
74	0x3bcdabcc	0.0062765833
75	0x3cf7fe05	0.030272493
76	0xbc4ae21d	-0.012383011
77	0x3c329c26	0.0109014865
78	0x3c3c1fed	0.011482221
79	0x3d49eb43	0.04929663
80	0xbd00c9fb	-0.031442624
81	0xbc6588ab	-0.014009635
82	0xbbc8defa	-0.0061300965
83	0x3d2c8fc7	0.042129304
84	0x3cc3ffbe	0.023925658
85	0x3ceea90e	0.029133346
86	0xbcb98c4e	-0.02264991
87	0x3d13fe30	0.036131084
88	0x3ca9e926	0.020741057
89	0xba8ce008	-0.0010747919
90	0xbb01f4e2	-0.00198298
91	0x3bde3b4d	0.0067819715
92	0x3d20d364	0.039264098
93	0x3d4c4492	0.04987008
94	0xbc153798	-0.009107493
95	0x3b7ce874	0.0038590701
96	0xbc8e22af	-0.017350523
97	0x3a08e8c1	0.00052226713
98	0xbc7f542e	-0.015584035
99	0x3cc25e79	0.023726689
100	0xbc84915a	-0.01618259
101	0xbb8d5e9a	-0.004314256
102	0xbc5e0dd4	-0.013553102
103	0x3bd21f5c	0.0064124297
104	0x3d107fde	0.035278194
105	0x3c78a5a7	0.015176213
106	0xbc9bd612	-0.019022975
107	0x3b552373	0.003252235
108	0x3d23fa4b	0.04003362
109	0xbc67e0cb	-0.014152716
110	0x3ccbd512	0.024881873
111	0xbcc2639f	-0.023729144
112	0xbd15a9b3	-0.03653879
113	0xbbdfd315	-0.006830583
114	0xbc9fc487	-0.019502891
115	0x3ccd9717	0.02509646
116	0x3d4f488a	0.050606288
117	0x3cc5bf11	0.02413896
118	0x3cdcc157	0.02694766
119	0x3d31370a	0.04326538
120	0x3d15207a	0.036407925
121	0x3c2fb9ff	0.010725497
122	0x3bdb3b5f	0.006690427
123	0x3cdec159	0.027191805
124	0x3bdc9ef2	0.006732815
125	0x3c71e76f	0.014764651
126	0xbb9e66b2	-0.0048340196
127	0xbd01799d	-0.03161012
128	0x3cda0508	0.026613727
129	0x3d677607	0.056509044
130	0x3beed7e3	0.0072889193
131	0xbbb12a89	-0.005406682
132	0xbbd68ae8	-0.0065473206
133	0xbc45f4cd	-0.012082291
134	0xbc8f0743	-0.017459517
135	0x3b777114	0.0037756609
136	0x3d42be37	0.047544684
137	0xbc9f4b84	-0.019445188
138	0x3d415c61	0.04720724
139	0x3d347231	0.044054214
140	0xbbe52122	-0.006992475
141	0x3c001810	0.007818237
142	0x3c8d87dc	0.017276697
143	0xbbc79e65	-0.00609188
144	0xbc37bb8c	-0.011214148
145	0x3cbf2657	0.023333712
146	0x3c0c998b	0.008581529
147	0x3d448170	0.047975004
148	0xbb6eb510	-0.003642384
149	0xbcaf03d4	-0.02136413
150	0xbc50afe2	-0.012737246
151	0xbd210ed6	-0.03932079
152	0x3c623081	0.01380551
153	0x3b8b6b05	0.004254701
154	0x3d14da2a	0.03634087
155	0xbd251412	-0.040302344
156	0xb816c3d4	-3.5945166e-05
157	0xbcd4897a	-0.02594446
158	0xbce31432	-0.02771959
159	0xbc352d3d	-0.011058149
160	0x3c1c8d61	0.009555192
161	0x3d1e9774	0.038718656
162	0x3c51ddd8	0.012809239
163	0x3d59139e	0.052997224
164	0xbc9a564c	-0.018839978
165	0x3ae7669c	0.0017654481
166	0xbc81698b	-0.015797397
167	0xbb07dba1	-0.0020730274
168	0xbc5fbc86	-0.013655787
169	0xbcc6e3e9	-0.024278598
170	0xbc80c997	-0.015721126
171	0x3b108b2e	0.0022055614
172	0x3d0fad87	0.035077598
173	0xbcabebe7	-0.02098651
174	0x3be40951	0.0069591184
175	0xbcb4186c	-0.021984302
176	0x3d260df9	0.04054067
177	0x3d028fc0	0.031875372
178	0x3d5273c2	0.051379927
179	0xbcc969d5	-0.024586597
180	0xbc3666d6	-0.011132916
181	0xbc495400	-0.012288094
182	0xbb626079	-0.0034542365
183	0x3cda21db	0.026627472
184	0x3d296ae9	0.041361723
185	0x3bfbf105	0.007688644
186	0x3cb9d474	0.022684313
187	0x3d434af1	0.04767889
188	0x3c9fcdc0	0.019507289
189	0xbbecc82a	-0.00722601
190	0x3cbda1e3	0.023148483
191	0xbb16e092	-0.0023022038
192	0xbba2af44	-0.004964741
193	0xbc6a64be	-0.014306245
194	0xbcaf0910	-0.021366626
195	0x3cb7a031	0.022415252
196	0xbc057e20	-0.008147746
197	0xbb48e5c2	-0.0030654524
198	0xbc71decd	-0.0147625925
199	0x3cb44173	0.022003865
200	0x3ca41722	0.020030562
201	0xbc813a36	-0.015774827
202	0x3c11d1ce	0.008900119
203	0xbc18d164	-0.009327266
204	0x3c0836e9	0.008313873
205	0x3c3143b1	0.010819362
206	0xbc8b710c	-0.017021678
207	0x3c80a0e4	0.015701719
208	0x3cb18caa	0.02167352
209	0x3c9d2d62	0.01918668
210	0xbc5defad	-0.013545913
211	0x3c217d6d	0.009856564
212	0x3c6e8f87	0.014560587
213	0x3d2afa2c	0.04174249
214	0x3d0c4bc5	0.034251947
215	0x3cad14ac	0.021128021
216	0xbd15f6a0	-0.036612153
217	0x3c82650e	0.015917327
218	0x3d1194dc	0.035542354
219	0x3cf9a23a	0.030472863
220	0xbceae308	-0.02867271
221	0xbcbbde1c	-0.022933058
222	0x3a61e814	0.0008617651
223	0x3d33deb6	0.043913566
224	0x3c59b1f3	0.013287055
225	0x3d55a795	0.05216177
226	0xbc4348f2	-0.011919247
227	0x3cd29dae	0.025709953
228	0xbb10137e	-0.0021984274
229	0x3c799b8d	0.01523484
230	0x3ca3af7b	0.019981137
231	0x3d1842ed	0.0371732
232	0x3a9293ae	0.0011182928
233	0x3c7e6d03	0.01552892
234	0xbca0cd60	-0.01962918
235	0x3cb15655	0.021647612
236	0x3cc8b10b	0.024498483
237	0x3992d96f	0.0002800929
238	0x3d068746	0.03284385
239	0xbce5a918	-0.028034732
240	0x3d370044	0.044677988
241	0xbb702e3b	-0.003664865
242	0x3c340775	0.010988106
243	0xbc4ec712	-0.012620704
244	0x3cc07802	0.023494724
245	0xbbea25f9	-0.00714564
246	0x3bb55e7b	0.0055349446
247	0xbc946f1d	-0.01811939
248	0x3d4ca91a	0.049965955
249	0x3ce92e76	0.028464537
250	0x3c0a3c00	0.008437157
251	0x3cc3d386	0.023904573
252	0xba58c5cb	-0.00082692195
253	0x3aee5609	0.00181836
254	0x3d3325a0	0.043737054
255	0x3cdfdfa7	0.027328325

fc2.weight f4 [132, 256]
0	0xbc8c55fd	-0.017130846
1	0xbd297b23	-0.041377198
2	0x3d9aaf4d	0.07552967
3	0x3bfbb366	0.007681298
4	0xbccaeb2a	-0.024770338
5	0x3d94ddb7	0.07268851
6	0x3d4262e4	0.04745759
7	0xbd3e24a3	-0.04642166
8	0xbc7268d4	-0.014795501
9	0x3d890915	0.066911854
10	0x3ca8c984	0.020603903
11	0xba34e860	-0.00069010817
12	0x3d501fcb	0.05081157
13	0x3ca044a4	0.01956398
14	0x3d31944b	0.043354314
15	0xbd5217d9	-0.051292274
16	0x3c2e9c03	0.010657313
17	0xbc771f55	-0.015083154
18	0x3d7e0636	0.062017642
19	0x3ca5f441	0.02025807
20	0x3d31d598	0.04341659
21	0xbab24917	-0.0013602105
22	0x3b293dbe	0.0025824155
23	0xbd6b99ca	-0.05751971
24	0x3d926bfe	0.07149504
25	0xbc793388	-0.01521004
26	0x3c935819	0.017986344
27	0x3d854d1b	0.06508847
28	0x3d5d398a	0.05400995
29	0xbc2c7467	-0.010525799
30	0xbd206277	-0.039156403
31	0xbd07765b	-0.033071857
32	0xbd1b23f7	-0.037876096
33	0xbd6c29f6	-0.057657205
34	0xbd0d8ad7	-0.034556236
35	0x3d46dc67	0.048550036
36	0xbc7c9b08	-0.015417822
37	0x3b7cb85e	0.003856204
38	0x3c79c427	0.01524452
39	0xbd75a40e	-0.059970908
40	0x3ce79f80	0.028274298
41	0x3d5f2b37	0.054484572
42	0xbce7ba6d	-0.028287137
43	0xbd2864bf	-0.041111704
44	0x3bab1e02	0.005222083
45	0x3c0086bd	0.007844624
46	0xbcb9e77a	-0.022693384
47	0x3d2e48b8	0.04254982
48	0xbcb538d8	-0.022121832
49	0x3c24a8a2	0.010049971
50	0x3d8948ce	0.067033395
51	0xbcf61e0a	-0.03004362
52	0xb911c785	-0.00013902604
53	0x3cc8dcce	0.02451935
54	0x3af27138	0.0018496877
55	0xbd4f8111	-0.050660197
56	0x3d6214ee	0.05519574
57	0xbd4b6533	-0.049657058
58	0xbc94da18	-0.018170401
59	0x3b6f162a	0.0036481717
60	0xbc11108f	-0.0088540455
61	0xbc12ea9b	-0.008967067
62	0x3d314d2f	0.0432865
63	0x3d09dbef	0.03365701
64	0x3d574e25	0.05256476
65	0xbd6a5d93	-0.057218146
66	0xbc705874	-0.014669526
67	0x3c230757	0.00995048
68	0xbd93a0b4	-0.07208386
69	0x3d5c4083	0.05377246
70	0x3d196d25	0.037457604
71	0x3bb1f55b	0.00543086
72	0x3d42c283	0.047548782
73	0x3b108cb1	0.0022056515
74	0xbc685c5b	-0.0141821755
75	0x3c8c688a	0.017139692
76	0xbdaeeea3	-0.0854161
77	0x3b821cb1	0.0039707054
78	0xbc4de33f	-0.012566387
79	0xbbfc5cf4	-0.0077015106
80	0xbc59af7d	-0.013286469
81	0x3d9ac198	0.07556456
82	0x3d831aac	0.06401572
83	0x3cf74413	0.030183828
84	0x3cedc0d8	0.02902262
85	0xbd31c56a	-0.04340116
86	0x3d4b4b2a	0.04963223
87	0xbab61c2b	-0.0013893893
88	0x3c1d2af5	0.009592761
89	0xbc86aab9	-0.016438829
90	0xbcb68410	-0.02227977
91	0xbd95881e	-0.07301353
92	0x3b891688	0.004183594
93	0xbd165b1b	-0.03670798
94	0x3d4c83d5	0.049930412
95	0xbd6348e0	-0.05548942
96	0xbced0589	-0.028933303
97	0x3d9c7307	0.07639127
98	0xbab6b57e	-0.0013939587
99	0xbd26d691	-0.04073197
100	0x3b88387c	0.004157124
101	0x3cf185a6	0.029482674
102	0xbd00c5ad	-0.03143852
103	0xbce6112d	-0.028084362
104	0x3d70f471	0.058826867
105	0x3ca8fd40	0.020628572
106	0xbd5c88fd	-0.05384158
107	0x3d91efb7	0.071258
108	0xbc036f22	-0.008022102
109	0xbd27dd57	-0.04098257
110	0x3d35d926	0.044396542
111	0x3cfe037e	0.031007525
112	0x3db9177e	0.09037684
113	0x3d24e252	0.0402549
114	0xbd99a9f9	-0.07503123
115	0x3d13a84c	0.036049172
116	0x3da709bc	0.081561536
117	0x3d241737	0.040061202
118	0xbc3b64e5	-0.011437629
119	0xbc5c032d	-0.013428492
120	0xbc104917	-0.0088064885
121	0x3d3230bd	0.04350351
122	0xbcfe1251	-0.031014593
123	0xbdb3a308	-0.0877133
124	0xbd4ec9bc	-0.050485358
125	0x3d60ddb2	0.054898925
126	0x3d105dc5	0.035245676
127	0x3d359e8b	0.04434065
128	0xbd2da634	-0.04239483
129	0xbd585c92	-0.052822657
130	0x3d4d8a8c	0.050180957
131	0x3bb25dc1	0.0054433052
132	0xbc09d26b	-0.008411984
133	0x3cadb2fd	0.021203512
134	0x3d7bdc0e	0.061489157
135	0x3d32e5c8	0.043676168
136	0xbcaf7c6b	-0.021421632
137	0xbd64df19	-0.055876825
138	0xbd3071f1	-0.043077413
139	0xbd1607ec	-0.03662865
140	0x3d9221fb	0.071353875
141	0xbd091409	-0.033466373
142	0x3d2f0a0b	0.042734187
143	0x3d026551	0.031834904
144	0xba8a82cb	-0.0010567544
145	0xbcb7ed03	-0.022451883
146	0xbce9124f	-0.028451113
147	0x3cd56f03	0.026053911
148	0xbd907a0d	-0.07054529
149	0x3d550184	0.0520034
150	0xbd5ab342	-0.05339361
151	0x3dc2eed6	0.095182106
152	0x3d3894f5	0.04506393
153	0xbc2ef0d2	-0.010677533
154	0xbd5665ad	-0.05234306
155	0x3d9d2fb8	0.07675117
156	0xbcfd84f0	-0.030947179
157	0x3c0e301e	0.008678464
158	0x3dabbf58	0.08386105
159	0x3d0361af	0.03207558
160	0x3c97bd9c	0.01852303
161	0x3c9ea2a2	0.019364659
162	0x3d15841c	0.036502942
163	0x3bef66a9	0.007305939
164	0x3d80e6b0	0.06294
165	0x3d22b2ca	0.039721288
166	0xbd82a5ba	-0.06379266
167	0x3d122159	0.035676334
168	0x3c970ae2	0.018437807
169	0xbd45e997	-0.04831847
170	0xbb3185c0	-0.0027087778
171	0xbc9e6954	-0.019337334
172	0xbd25cb7e	-0.04047727
173	0x3d894722	0.06703021
174	0xbb7e5931	-0.0038810486
175	0xbd01ec90	-0.031719744
176	0xbd130085	-0.035889167
177	0xbcd0e189	-0.025498169
178	0xbd6f225f	-0.05838239
179	0x3d0cc5b5	0.034368236
180	0x3caf106e	0.021370139
181	0x3d3bac7d	0.045818795
182	0x3d84e007	0.06488042
183	0xbd5298b3	-0.051415157
184	0x3bcdd24b	0.0062811724
185	0x3d877f6d	0.066161014
186	0xbd2cb1a4	-0.0421616
187	0xbd388d14	-0.045056418
188	0xbbfcf644	-0.007719787
189	0xbc53073c	-0.012880143
190	0xbd0ea56d	-0.03482573
191	0xbcb6fc60	-0.022337139
192	0x3c8a0609	0.01684858
193	0x3d9b318b	0.07577809
194	0x3d4e07bc	0.050300345
195	0xbc84c43d	-0.016206855
196	0xbd7551cf	-0.059892472
197	0xbd6f7a33	-0.058466148
198	0xbd119629	-0.035543595
199	0xbd041740	-0.032248735
200	0xbd8c7f2f	-0.06860196
201	0xbc8a239c	-0.016862683
202	0x3db299f0	0.087207675
203	0x3c665f9f	0.014060884
204	0x3cbdbc73	0.023161149
205	0xbb388226	-0.0028153746
206	0xbd78a309	-0.060702357
207	0x3d69db98	0.057094187
208	0xbb0df8dd	-0.0021663227
209	0x3d58fbc3	0.052974474
210	0xbd62d6b2	-0.05538053
211	0xbd102da2	-0.03519977
212	0xbc98b373	-0.018640256
213	0xbcea68fd	-0.028614515
214	0xbd0ac744	-0.03388144
215	0xbbf3df20	-0.00744237
216	0x3dc61780	0.09672451
217	0x3d1943c6	0.03741815
218	0xbd27b2ee	-0.040942125
219	0x3d311fae	0.043243103
220	0x3d940889	0.072281905
221	0xbd2f722d	-0.042833496
222	0xbd7a42fa	-0.06109903
223	0xbd470aa4	-0.048594132
224	0x3d137c6b	0.036007326
225	0x3d5b463b	0.053533774
226	0xbd44bac2	-0.04802967
227	0xbc6f78cb	-0.014616202
228	0xbd694616	-0.056951605
229	0x3d9127de	0.07087682
230	0xbd2e487d	-0.0425496
231	0xbd5ae637	-0.053442206
232	0xbaeb6f81	-0.0017962308
233	0xbda3e82f	-0.0800327
234	0xbbc670d0	-0.0060559288
235	0x3d4ca2ab	0.04995982
236	0xbc43455b	-0.011918391
237	0x3d8c8a70	0.06862342
238	0x3dd45c9a	0.10369225
239	0xbd15fa83	-0.03661586
240	0xbd5f04dd	-0.054447997
241	0xbc5d87ec	-0.013521176
242	0x3c201d17	0.009772561
243	0x3d99513a	0.07486196
244	0xbd9e7b9c	-0.0773842
245	0xbccb0377	-0.024781926
246	0x3cec1970	0.028820723
247	0x3c8bba40	0.017056584
248	0x3d61e01e	0.055145375
249	0x3c1ced30	0.009578034
250	0x3d98d3c4	0.07462266
251	0xbd49d559	-0.04927573
252	0xbc457cfc	-0.012053724
253	0xbcdf55fb	-0.027262678
254	0xbd1e7685	-0.038687248
255	0xbd894f35	-0.06704561

fc2.bias f4 [132]
0	0xbcf6b58b	-0.030115863
1	0x3d98e2ac	0.07465109
2	0xbb6b9794	-0.0035948502
3	0x3d7fc08b	0.062439483
4	0xbd1c2742	-0.038123377
5	0xbd0c0354	-0.03418286
6	0x3d782e2b	0.060590904
7	0xbcb12343	-0.02162326
8	0x3d5cc370	0.05389732
9	0x3c8af304	0.016961582
10	0xbc2bd151	-0.010486917
11	0xbcc8353d	-0.024439448
12	0x3d54e57d	0.05197667
13	0x3d0c1f29	0.034209404
14	0xbc15065c	-0.0090957545
15	0xbb6a6657	-0.0035766566
16	0x3b6c38a4	0.0036044503
17	0x3d7abda2	0.061216004
18	0x3c5148c8	0.0127737
19	0x3d265225	0.040605683
20	0xbd3b8b38	-0.045787066
21	0x3c8cb296	0.017175
22	0x3bace990	0.0052768663
23	0x3c3e9f34	0.011634637
24	0x3cf2bf7f	0.029632328
25	0x3d8cfc37	0.06884044
26	0x3c13c5e4	0.009019349
27	0x3d54140e	0.05177694
28	0x3bd30083	0.00643927
29	0x3c1c56e2	0.009542199
30	0x3d36f436	0.04466649
31	0x3d62bfef	0.055358823
32	0x3cefa724	0.029254504
33	0x3ca844bc	0.020540588
34	0x3c6d6a33	0.014490652
35	0xbc47bbbc	-0.012190755
36	0x3c45cf2a	0.012073318
37	0xbc36db63	-0.011160704
38	0x3d1764cc	0.03696136
39	0x3d66349c	0.056202516
40	0x3d8aaa9c	0.067708224
41	0x3d2b455f	0.041814204
42	0x3d10f460	0.035389304
43	0xbd21579c	-0.03939019
44	0x3d6d6841	0.057960752
45	0xbd5076dd	-0.050894607
46	0x3c515f75	0.012779106
47	0x3b91357a	0.0044314237
48	0x3ccae8c5	0.024769196
49	0xbc9311db	-0.01795285
50	0x3d635134	0.055497363
51	0x3dae7791	0.08518899
52	0x3d93503a	0.071930364
53	0x3d23bd51	0.039975468
54	0xbd2f5785	-0.042808075
55	0x3c4698ab	0.01212136
56	0xbd4f9560	-0.050679564
57	0xbceb984d	-0.028759146
58	0x3cbdfc42	0.023191575
59	0xbcac9041	-0.02106488
60	0x3a3aa49d	0.0007119866
61	0xbcc3d92b	-0.023907265
62	0x3d604e54	0.0547622
63	0x3caaf122	0.020866934
64	0x3c323091	0.010875837
65	0x3d5583e5	0.052127738
66	0xbcd46419	-0.025926637
67	0x3c322cd2	0.010874944
68	0x3d5deb62	0.054179557
69	0xbd41dbce	-0.047328763
70	0xbd166c4e	-0.03672438
71	0xbd6ff01e	-0.058578603
72	0xbd185eb3	-0.037199687
73	0xbd26fd9b	-0.0407692
74	0xbd112cec	-0.03544323
75	0x3caf5520	0.021402895
76	0xba8bc1f2	-0.0010662659
77	0x3d228d10	0.03968531
78	0x3d80d3e6	0.062904164
79	0x3d1f1c49	0.038845334
80	0x3d48ad4a	0.048993386
81	0xbcdd28d6	-0.026997011
82	0x3bb2017c	0.005432306
83	0xbd2b4969	-0.041818056
84	0xbc1dc6b9	-0.009629899
85	0xbcd563f1	-0.026048632
86	0xbca64b5c	-0.020299606
87	0xba61cf33	-0.0008613944
88	0x3d6a1041	0.057144407
89	0x3cfc09e6	0.030766439
90	0x3c706b3e	0.014674006
91	0xbd645a9d	-0.055750478
92	0xbc04830c	-0.008087885
93	0xbd896ad1	-0.06709827
94	0x3cbd61de	0.023117956
95	0x3c2030d7	0.009777269
96	0x3d61dc76	0.05514189
97	0x3d96de9a	0.07366677
98	0x3c1064dc	0.008813109
99	0xbd2a2d3c	-0.041547045
100	0xbd275268	-0.040850073
101	0xbcc841b8	-0.0244454
102	0xbd653804	-0.055961624
103	0x3bb03ac2	0.005378098
104	0x3ca75180	0.020424604
105	0x3ce6ba73	0.028165078
106	0xbd19b362	-0.03752459
107	0xbce9b22b	-0.02852734
108	0xbc5f2ef0	-0.013622031
109	0x3ca085c9	0.019595044
110	0xbbb6fead	-0.005584559
111	0x3d873c94	0.06603351
112	0x3d6381d8	0.05554375
113	0x3d4ce1a9	0.050019894
114	0xbd39a7dd	-0.045326103
115	0xbc373fb9	-0.011184626
116	0x3d4ff9ea	0.050775446
117	0x3d831c58	0.064018905
118	0x3c8cf342	0.017205838
119	0x3d33b2bd	0.04387163
120	0xbc8a5a8b	-0.016888877
121	0x3d68d864	0.05684699
122	0xbb71072a	-0.0036777952
123	0x3cc53560	0.024073303
124	0x3d7766eb	0.060400885
125	0x3c15da29	0.009146252
126	0x3d140b0a	0.03614334
127	0xbd48e1f7	-0.049043622
128	0xbb0b6742	-0.0021271263
129	0x3cbf13cb	0.023324868
130	0x3c5b7b56	0.013396105
131	0xbd4f2cb6	-0.05057975

fc3.weight f4 [100, 132]
0	0x3c04af12	0.008098381
1	0x3debc3c4	0.11511949
2	0x3d04590b	0.03231148
3	0x3d8f1a26	0.06987409
4	0x3cc70645	0.024294982
5	0x3d929be8	0.07158643
6	0x3d2c3159	0.04203925
7	0xb9dee087	-0.00042510426
8	0xbd4f0647	-0.050543096
9	0x3cc7f07d	0.024406666
10	0x3d2f017f	0.042726036
11	0x3ccb9851	0.024852904
12	0xbd08f1d8	-0.033433765
13	0xbb796c29	-0.0038058853
14	0x3d9ef93e	0.07762383
15	0x3b9c1ddd	0.004764302
16	0xbd6c7a5e	-0.057733886
17	0xbc3c1761	-0.011480183
18	0xbc96f9b8	-0.018429622
19	0xbd86458a	-0.06556232
20	0xbda6ff12	-0.081541196
21	0xbd0b0562	-0.03394068
22	0xbdab970b	-0.083784185
23	0x3d6a95d2	0.057271786
24	0x3dbd3a3d	0.09239624
25	0xbd73d4b7	-0.059529033
26	0x3b87a764	0.0041398276
27	0xbd3c29e3	-0.045938384
28	0xbbe2525b	-0.00690679
29	0x3d4ab6f4	0.049490884
30	0x3bb06667	0.005383301
31	0x3c237731	0.009977148
32	0x3dd94a12	0.10609831
33	0x3d67e666	0.05661621
34	0xbd4a7a05	-0.049432773
35	0xbc80ee77	-0.015738709
36	0x3d624759	0.055243824
37	0x3d95c976	0.07313816
38	0xbd68a413	-0.0567971
39	0x3d268ec3	0.040663492
40	0x3da49eb6	0.08038084
41	0xbd8ffd48	-0.070307314
42	0x3d936f3f	0.07198953
43	0xbd50d795	-0.050986845
44	0x3b09322b	0.0020934443
45	0x3d953532	0.07285537
46	0x3db8dec0	0.09026861
47	0x3d813601	0.063091286
48	0xbb3120fd	-0.002702772
49	0x3d6c8923	0.05774797
50	0xbd611706	-0.054953597
51	0xbd80e855	-0.06294314
52	0x3d53c64e	0.05170279
53	0x3d9b1288	0.07571894
54	0xbc6f614b	-0.014610599
55	0x3da7aa39	0.08186764
56	0xbd210f04	-0.03932096
57	0x3ca42299	0.020036029
58	0x3d985c28	0.074394524
59	0x3d87b530	0.06626356
60	0x3c4be4aa	0.0124446545
61	0x3dbd3aff	0.09239768
62	0xbd29a18c	-0.04141383
63	0x3d7cf0b4	0.06175299
64	0x3c17d0f0	0.009266123
65	0x3d0426cb	0.03226356
66	0x3dd09354	0.101843506
67	0x3cbaf448	0.02282156
68	0x3dc06f1b	0.09396192
69	0xbcf79898	-0.03022413
70	0x3c8d67ad	0.01726135
71	0x3d8ce4ee	0.068796024
72	0xbdd306bd	-0.103040196
73	0x3dc0a360	0.09406161
74	0x3c9aaa4c	0.018880032
75	0x3d4cff59	0.050048206
76	0x3d2eb8de	0.04265677
77	0x3dbbc533	0.09168472
78	0xbda2ce74	-0.07949534
79	0x3d587d58	0.052853912
80	0x3d3d9dfe	0.04629325
81	0xbd7f4a96	-0.06232699
82	0xbd5155da	-0.051107265
83	0xbd182da3	-0.037152898
84	0x3cf3f211	0.029778512
85	0x3ab88377	0.0014077266
86	0xbd9e6c94	-0.077355534
87	0x3d3584bf	0.04431605
88	0x3c2316a3	0.0099541275
89	0xbc802bcd	-0.015645886
90	0xba46f9fa	-0.000759035
91	0xbda4876c	-0.08033642
92	0xbcebcd33	-0.02878437
93	0xbd090e74	-0.03346105
94	0xbacf2dee	-0.0015806535
95	0xbdc0e7c6	-0.09419207
96	0xbd9a8d33	-0.07546463
97	0x3caeaa6b	0.021321496
98	0xbd80579e	-0.06266712
99	0x3c806a06	0.015675556
100	0x3da52af8	0.08064836
101	0x3d056e2b	0.032575767
102	0xbdb8c582	-0.090220466
103	0x3c12d5c9	0.008962103
104	0x3c4db465	0.012555216
105	0x3db1d112	0.08682455
106	0x3d9b0075	0.075684465
107	0x3d8fefdb	0.07028171
108	0x3d0f131f	0.034930345
109	0x3dd125c0	0.10212278
110	0xbaee2fd4	-0.0018172213
111	0x3ce49b6d	0.027906144
112	0x3d8e9d04	0.06963542
113	0xbcd4d7d0	-0.025981814
114	0xbd037e32	-0.03210277
115	0xbd570464	-0.05249442
116	0xba765add	-0.0009397695
117	0xbd728550	-0.059209168
118	0xbbb590c3	-0.0055409386
119	0x3cfac2a7	0.030610396
120	0xbd40342a	-0.046924748
121	0xbd850848	-0.0649572
122	0x3d99b9a3	0.075061105
123	0xbbcfb57f	-0.0063387747
124	0x3d96a1fe	0.07355116
125	0x3d53e308	0.051730186
126	0xbd9ea9c3	-0.07747223
127	0xbd36ba32	-0.044611163
128	0x3d46cc42	0.04853464
129	0xbd96a895	-0.07356373
130	0xbdb66b4b	-0.08907183
131	0xbd5244a0	-0.051334977
132	0xbd61339c	-0.05498086
133	0xbdd1dbbe	-0.102469906
134	0x3ddceb4f	0.10787069
135	0xbcc52d1e	-0.024069365
136	0x3d0b1c1b	0.03396235
137	0x3da16f58	0.07882565
138	0x3ddeede3	0.10885217
139	0x3dd76768	0.1051777
140	0x3dc832f4	0.097753435
141	0xbdac3493	-0.08408465
142	0xbcccf7df	-0.025020538
143	0xbdaf8528	-0.085703194
144	0xbd867def	-0.06566989
145	0xbca4ef12	-0.020133529
146	0xbdb4bfbb	-0.08825632
147	0x3cbab4f0	0.022791356
148	0x3c8c6bc6	0.017141234
149	0x3db6a058	0.08917302
150	0xbdb38066	-0.087647244
151	0x3c5e8413	0.013581294
152	0x3d82925f	0.06375574
153	0x3d712b11	0.058878962
154	0x3d8e8f40	0.069609165
155	0x3dbeb0c7	0.09311061
156	0xbda6d82d	-0.08146701
157	0xbd190ff2	-0.037368722
158	0x3d9c9b2d	0.07646785
159	0x3d0579e3	0.032586943
160	0x3d380d72	0.044934697
161	0xbd59642b	-0.053074043
162	0xbb1e304d	-0.0024137676
163	0xbd99d4a8	-0.07511264
164	0xbd1ff74a	-0.039054193
165	0x3d699393	0.057025503
166	0x3d35f648	0.044424325
167	0x3dbea539	0.093088575
168	0x3d3f482e	0.046699695
169	0xbcdf334d	-0.027246142
170	0xbd2b9756	-0.041892372
171	0x3d8c6794	0.068556935
172	0xbdfd79b4	-0.12376729
173	0xbd2d3abe	-0.04229235
174	0xba68ebb7	-0.0008885222
175	0x3d407bc0	0.046993017
176	0x3d91a231	0.07111014
177	0xbbe15a33	-0.0068772077
178	0xbcb62338	-0.02223359
179	0xbd95303e	-0.07284592
180	0xbd4d241e	-0.050083272
181	0xbc2fd9f3	-0.0107331155
182	0xbd84ddad	-0.06487594
183	0xbda32686	-0.07966332
184	0xbc4f8596	-0.012666127
185	0x3d1d416c	0.03839247
186	0x3d3a0bd4	0.045421436
187	0xbc4d8113	-0.012542981
188	0x3d9a3e1a	0.07531376
189	0x3d2613df	0.040546294
190	0xbdac779d	-0.08421252
191	0x3dd885c0	0.10572386
192	0x3cdb3442	0.026758317
193	0x3cd602d9	0.026124405
194	0xbb44d771	-0.003003564
195	0xbd2f09b8	-0.042733878
196	0x3d978005	0.07397465
197	0xbd596f98	-0.05308494
198	0xbdc7fa82	-0.097645774
199	0xbccb4ece	-0.02481785
200	0x3d59d223	0.053178918
201	0x3d801b81	0.06255246
202	0x3d244d50	0.040112793
203	0xbce550e3	-0.027992671
204	0xbd49f7de	-0.04930865
205	0x3da5d000	0.080963135
206	0x3cb5e168	0.022202209
207	0xbd0963d7	-0.03354248
208	0xbce3b021	-0.027793946
209	0xbde32633	-0.1109127
210	0x3da7291f	0.0816214
211	0x3d2020b4	0.039093688
212	0x3d0990f1	0.033585493
213	0xbcc73963	-0.024319356
214	0xbb55cc21	-0.003262289
215	0x3c1d1319	0.009587073
216	0x3c46ad2d	0.012126249
217	0x3de6c936	0.11268847
218	0x3adfa9e7	0.0017064185
219	0x3ba0c217	0.00490595
220	0x3d811e9e	0.06304668
221	0xbd890ab3	-0.06691494
222	0xbd76d668	-0.060263067
223	0x3dd875e5	0.105693616
224	0xbc31667d	-0.010827658
225	0xbd00682e	-0.031349353
226	0xbda4cdeb	-0.08047088
227	0x3d9a09d4	0.07521406
228	0xbc4e5275	-0.0125929015
229	0x3d6e9f0a	0.05825714
230	0x3d9108e6	0.07081775
231	0xbcf22b7a	-0.029561747
232	0x3daa7278	0.083226144
233	0x3b3a58b7	0.0028434226
234	0x3c20e2a8	0.009819664
235	0x3da35946	0.07976012
236	0xbd965beb	-0.07341751
237	0x3c86360a	0.01638319
238	0x3cbaab9e	0.022786912
239	0xbd50714d	-0.050889302
240	0xbdb71580	-0.08939648
241	0xbd4390bf	-0.047745463
242	0xbdd4d04c	-0.10391292
243	0xbc139360	-0.009007305
244	0xbc9bcda9	-0.019018965
245	0x3d0e2207	0.03470042
246	0x3c9976d0	0.018733412
247	0xbd866d18	-0.06563777
248	0x3d02be1b	0.03191958
249	0xbc81e7fb	-0.015857687
250	0x3da9480c	0.08265695
251	0x3caa1eb1	0.020766588
252	0x3d197544	0.03746535
253	0xbd19fe81	-0.03759623
254	0xbddab4cf	-0.10679018
255	0x3d8d09fe	0.068866715

fc3.bias f4 [100]
0	0x3db623dd	0.08893559
1	0x3d987586	0.07444291
2	0xbd75563f	-0.059896704
3	0x3c8124bc	0.015764587
4	0x3d7b6009	0.061370883
5	0x3dbe51e3	0.092929624
6	0x3cf23e75	0.029570797
7	0x3d6ab835	0.05730458
8	0xbc8ae26f	-0.016953675
9	0xbda9a1ad	-0.0828279
10	0x3d3233f5	0.04350658
11	0xbc055d54	-0.008139927
12	0xbca1fc27	-0.019773556
13	0xbbed9ff1	-0.0072517325
14	0x3ce86f17	0.028373284
15	0xbcc3b825	-0.023891518
16	0xbd398700	-0.04529476
17	0xbb6fe614	-0.0036605643
18	0xbd31ae5d	-0.043379176
19	0x3d9d6960	0.07686114
20	0x3d09b0dc	0.033615932
21	0xbd5313eb	-0.051532667
22	0xbd8f2b59	-0.0699069
23	0x3c12b947	0.008955306
24	0x3d3e0c5f	0.046398517
25	0xbdb2b9a7	-0.087268166
26	0xbcd1191b	-0.025524667
27	0x3d2eb9e3	0.042657744
28	0xbc8c369d	-0.017115885
29	0xbbdb08e3	-0.006684409
30	0xbbc45ac2	-0.0059922645
31	0xbb885202	-0.0041601667
32	0xbcfca878	-0.03084205
33	0x3c455233	0.012043524
34	0xbd046916	-0.03232678
35	0x3c071afe	0.0082461815
36	0x3daed677	0.08537
37	0x3d272ee6	0.04081621
38	0xbd6efef7	-0.058348622
39	0x3cd299ad	0.025708044
40	0x3d6e0d86	0.058118366
41	0x3d96ab69	0.07356913
42	0x3d826735	0.063673414
43	0xbd969a06	-0.073535964
44	0x3da2e9c6	0.07954745
45	0x3c84bc3b	0.016203037
46	0x3d1fd715	0.039023478
47	0xbd3994cc	-0.04530792
48	0x3d049f47	0.03237846
49	0x3cf0cf6c	0.029395781
50	0x3c27d391	0.010243312
51	0x3d61d5e6	0.05513563
52	0x3cfca589	0.030840652
53	0x3d98c0f5	0.07458679
54	0x3c0a0d51	0.008426026
55	0xbd8d319e	-0.06894229
56	0x3cf9ef68	0.030509666
57	0xbca2aaaa	-0.01985677
58	0xbd24de66	-0.04025116
59	0x3d80b9c6	0.062854335
60	0xbd587f81	-0.052855972
61	0xbd3ee61d	-0.046606172
62	0xbd9b8247	-0.07593208
63	0x3d7f86e5	0.062384505
64	0x3d2628b7	0.040566172
65	0xbc19a061	-0.009376616
66	0x3da0f443	0.07859089
67	0x3bf3a016	0.007434855
68	0xbcdf7e65	-0.02728195
69	0x3da8cef1	0.08242596
70	0xbd8fce0c	-0.07021722
71	0xbb459975	-0.0030151282
72	0x3d9704c6	0.07373957
73	0xbc8a919b	-0.016915133
74	0xbd044122	-0.032288678
75	0x3d97ba87	0.07408624
76	0xbd2ce390	-0.042209208
77	0x3dc42549	0.09577424
78	0x3d38ab03	0.045084964
79	0x3c3d1715	0.011541148
80	0x3d16e03c	0.03683494
81	0x3d11d070	0.035599172
82	0x3ce2bdac	0.027678333
83	0x3cbf8970	0.023380965
84	0x3d6ddf49	0.05807427
85	0x3cb2dbf7	0.021833403
86	0x3d429069	0.047501
87	0x3d43a870	0.047768056
88	0xbd185577	-0.03719088
89	0x3ca094d9	0.019602226
90	0xbcb4cede	-0.022071298
91	0x3dba583d	0.09098861
92	0xbc8a5c43	-0.016889697
93	0x3db89272	0.09012307
94	0x3c7aa698	0.015298508
95	0x3d88e794	0.06684795
96	0x3d991bc9	0.07476003
97	0x3d811a4f	0.06303846
98	0xbc114ae9	-0.008867958
99	0x3d8fbe27	0.070186906

fc4.weight f4 [10, 100]
0	0x3dbab39e	0.091162905
1	0xbd8ee5f0	-0.06977451
2	0x3dd85511	0.105631
3	0x3dec9a6b	0.115528904
4	0xbde71d3f	-0.11284875
5	0xbe1a542c	-0.15071172
6	0x3d0083a1	0.03137553
7	0x3d8e707f	0.06955051
8	0xbbad07f1	-0.0052804877
9	0xbcd728a8	-0.026264504
10	0x3d13abb2	0.036052413
11	0xbd072ab7	-0.03299972
12	0x3c3de662	0.011590572
13	0xbc3fd422	-0.011708291
14	0x3db161be	0.08661221
15	0xbd989af8	-0.07451433
16	0xbd820525	-0.063486375
17	0xbdbe39db	-0.09288379
18	0xbe13c8b1	-0.14432026
19	0xbe02f615	-0.12789185
20	0xbe1230b9	-0.14276399
21	0xbdeb070d	-0.11475954
22	0x3ddd8806	0.1081696
23	0xba9074f8	-0.0011021188
24	0x3d2fea53	0.04294808
25	0xbd31c89d	-0.04340421
26	0xbd019f95	-0.03164633
27	0x3d538afd	0.05164622
28	0xbe01f75f	-0.12692021
29	0x3df22978	0.11824316
30	0xbd8ca8e4	-0.06868151
31	0x3c96097a	0.018315066
32	0xbd5238f8	-0.05132386
33	0x3caf9768	0.0214345
34	0x3db73f3c	0.08947608
35	0xbdc7add5	-0.09749953
36	0xbdedfff1	-0.116210826
37	0xbdcff4fe	-0.101541504
38	0x3d52d70b	0.051474612
39	0x3da7c3a6	0.08191614
40	0x3de41230	0.111362815
41	0x3da96066	0.0827034
42	0xbd55b79d	-0.05217706
43	0x3caaece3	0.02086491
44	0xbe0e3c0b	-0.13890092
45	0x3b877cde	0.0041347584
46	0xbd00fb51	-0.031489674
47	0xbce4dca4	-0.02793724
48	0xbda2dc97	-0.079522304
49	0x3db4e9d1	0.088336594
50	0x3de04ad3	0.109517716
51	0xbd373020	-0.04472363
52	0xbc631fa1	-0.013862521
53	0x3b3566a7	0.0027679594
54	0x3d6560f1	0.056000654
55	0xbd67340e	-0.056446128
56	0xbe157d26	-0.14598522
57	0x3db588f6	0.08864014
58	0xbde443f8	-0.111457765
59	0xbe0eb6f9	-0.13936986
60	0x3ccced8f	0.02501562
61	0xbc316367	-0.010826922
62	0x3d01dcd3	0.031704735
63	0xbda2519e	-0.079257235
64	0xbdcbac44	-0.099449664
65	0x3d01f930	0.031731784
66	0xbb7abed2	-0.003826071
67	0x3c2a6c60	0.010401815
68	0x3d73230a	0.059359588
69	0x3c702276	0.014656654
70	0x3cafa0fc	0.021439068
71	0x3d63c41d	0.05560695
72	0x3d6a8620	0.057256818
73	0xbd6323ba	-0.055453993
74	0x3dac7348	0.08420426
75	0x3dbf6355	0.09345118
76	0x3dbb386b	0.0914162
77	0xbdc8f512	-0.098123685
78	0xbdf5e7ee	-0.12007128
79	0xbd57883f	-0.05262017
80	0xbe0d71d6	-0.13812956
81	0xbd38a95d	-0.045083392
82	0xbe03e914	-0.12881881
83	0x3dc654f8	0.09684175
84	0x3cdcc416	0.02694897
85	0x3d84a5e5	0.06476954
86	0xbdf6866b	-0.12037357
87	0x3db2a7df	0.08723425
88	0x3c46b0da	0.012127126
89	0x3bcd5788	0.006266538
90	0x3d45a75d	0.048255313
91	0x3ce7923b	0.02826797
92	0xbc988d1a	-0.01862197
93	0xbdcacf49	-0.09902818
94	0x3d2cb940	0.042168856
95	0x3ddc62ec	0.10761055
96	0x3d957253	0.07297196
97	0xbb6ef60a	-0.0036462569
98	0x3df58836	0.11988871
99	0xbd774442	-0.06036783
100	0xbd87c76a	-0.06629832
101	0x3d36d805	0.044639606
102	0xbd1f4bf0	-0.03889078
103	0xbdcb2874	-0.09919825
104	0xbd770e76	-0.060316525
105	0xbc9b89c4	-0.01898659
106	0xbe0669da	-0.13126317
107	0xbd54314a	-0.05180482
108	0xbd894e82	-0.06704427
109	0xbd4885a7	-0.048955586
110	0x3d11f1f2	0.035631128
111	0xbd80595e	-0.062670454
112	0xbda50589	-0.08057696
113	0x3d77429a	0.06036625
114	0xbd546aae	-0.05185955
115	0x3da8b2d8	0.08237237
116	0xbd28af7f	-0.04118299
117	0x3da0c769	0.078505345
118	0x3cdac66b	0.026705941
119	0x3d97b810	0.07408154
120	0x3d908af4	0.07057753
121	0x3dbdb0d9	0.09262247
122	0x3d47e227	0.04879966
123	0xbe07da03	-0.13266759
124	0xbe09e708	-0.13467038
125	0xbda54b12	-0.08070959
126	0xbdd1a8df	-0.10237288
127	0xbdfe64a3	-0.12421539
128	0x3ddc73c8	0.10764271
129	0xbdcf5e0c	-0.1012536
130	0xbdf2df30	-0.11858976
131	0xbe13d617	-0.14437138
132	0x3ddf4e66	0.10903625
133	0x3ca9bf10	0.020720989
134	0x3c6785bf	0.014131009
135	0xbbde5c2b	-0.0067858896
136	0x3db27a02	0.087146774
137	0x3b597e7b	0.003318696
138	0xbdd277f5	-0.10276786
139	0xbddc3553	-0.10752358
140	0xbdfcc90c	-0.12343034
141	0xbdbabe54	-0.091183335
142	0x3d9c9a56	0.07646625
143	0x3dd0aea7	0.10189562
144	0x3d9e9ba6	0.07744531
145	0x3a023081	0.0004966334
146	0xbdfc19a2	-0.123095766
147	0xbdf22d3b	-0.11825033
148	0xbca97409	-0.020685213
149	0xbdf4caff	-0.11952781
150	0xbd18e475	-0.03732725
151	0xbda3019e	-0.07959293
152	0x3d117d6d	0.035520006
153	0x3dd672dc	0.104711264
154	0xbd819a90	-0.063283086
155	0x3cd184fd	0.025576109
156	0x3dfa577f	0.1222372
157	0xbe091c89	-0.13389792
158	0xbddc68e2	-0.10762192
159	0xbe00004e	-0.12500116
160	0x3d31c677	0.04340216
161	0x3cc60cc7	0.024176015
162	0xbdca3a62	-0.09874417
163	0xbdf3cd47	-0.11904388
164	0x3e011169	0.12604298
165	0xba5d9388	-0.0008452465
166	0xbd3e559c	-0.046468362
167	0xbdd40817	-0.103531055
168	0xbe24f905	-0.16110618
169	0x3db9ba4a	0.09068735
170	0x3dabbb82	0.08385374
171	0xbdf3e477	-0.119088106
172	0xbe285449	-0.16438402
173	0xbd856f5d	-0.065153815
174	0x3db386f0	0.08765972
175	0xbde5b32b	-0.11215814
176	0x3cace9e6	0.021107625
177	0xbdcd5c7c	-0.100274056
178	0x3ddb1521	0.106973894
179	0x3dcaf6b1	0.09910334
180	0x3e00d758	0.12582147
181	0x3dfbaf14	0.12289253
182	0xbdb360af	-0.08758675
183	0xbd71c85f	-0.05902898
184	0x3ccc1ec1	0.024917008
185	0x3ce33955	0.027737299
186	0xbc31a186	-0.010841733
187	0xbd9b94bc	-0.07596728
188	0xbe206349	-0.15662874
189	0xbdfc37df	-0.12315344
190	0xbdff0736	-0.12452547
191	0xbdda03d1	-0.10645259
192	0x3dd7881b	0.10524007
193	0x3d6fec8e	0.058575206
194	0x3e0511c4	0.12995058
195	0x3d59f56d	0.053212572
196	0xbe1d4fc6	-0.15362462
197	0x3d10da30	0.03536433
198	0xbe17fd3f	-0.148427
199	0x3de79d4c	0.11309299
200	0x3de75cda	0.11297007
201	0x3da6a576	0.08137028
202	0xbca24e52	-0.019812737
203	0xbd585fdc	-0.052825794
204	0x3cdda9d9	0.027058529
205	0xbc8c45bb	-0.017123094
206	0x3cab3c8f	0.0209029
207	0x3d211bca	0.039333142
208	0x3ce1a1f8	0.027543053
209	0x3dc073b7	0.09397071
210	0xbd5b6d3f	-0.053570982
211	0x3d556f7b	0.05210827
212	0xbe053d99	-0.13011779
213	0xbd606598	-0.054784387
214	0x3ca9a901	0.02071047
215	0xbc531cf6	-0.012885323
216	0x3c328961	0.0108970115
217	0xbbe7b2e2	-0.007070885
218	0xbcb7de2f	-0.022444813
219	0x3d4861e7	0.048921492
220	0x3d33a0d2	0.043854542
221	0xbdbf84d9	-0.093515106
222	0x3d91bc0d	0.07115946
223	0x3cc79982	0.02436519
224	0x3da99676	0.08280651
225	0x3c738514	0.014863271
226	0xbb08c9c5	-0.0020872217
227	0xbe0396d2	-0.12850502
228	0x3c4d847e	0.012543796
229	0x3ba0a958	0.004903
230	0xbd02e138	-0.031953067
231	0xbdfa3cf3	-0.122186564
232	0x3d847681	0.06467915
233	0x3dba7117	0.091036014
234	0x3d1127ef	0.035438474
235	0x3c4f6506	0.012658363
236	0x3c4b3bdf	0.012404411
237	0xbd591fba	-0.053008772
238	0xbc1bd56c	-0.009511333
239	0xbdb8df02	-0.0902691
240	0xbbce8365	-0.0063022845
241	0xbd39118b	-0.045182746
242	0xbda205b8	-0.07911247
243	0x3d7163a4	0.058932915
244	0x3ce671a7	0.028130366
245	0x3d822b02	0.06355859
246	0x3d5fde50	0.054655373
247	0x3d62460c	0.055242583
248	0xbbb290bc	-0.0054493826
249	0xbdadd185	-0.08487228
250	0xbd402eb8	-0.046919554
251	0xbc20da47	-0.009817666
252	0xbd13fb38	-0.036128253
253	0x3cb9acfb	0.022665491
254	0x3baf9ac6	0.0053590266
255	0x3d1d0530	0.038335025

fc4.bias f4 [10]
0	0xbdbba6c9	-0.09162671
1	0x3d22a064	0.03970374
2	0x3d3cb057	0.04606661
3	0x3d88387e	0.066514
4	0xbc6dcc12	-0.014513986
5	0xbcf5c429	-0.030000763
6	0x3d53ba09	0.05169109
7	0x3ccdf42b	0.025140842
8	0xbdc58450	-0.09644377
9	0x3c60b083	0.013713959
